abc_bcs/u_t0.pth (torch, 37923 bytes, 7 tensors)

net.0.weight f4 [64, 3]
0	0x3ee8c8d7	0.4546573
1	0x3ee53187	0.4476435
2	0xbeed43a8	-0.4634068
3	0x3deeb803	0.11656191
4	0x3e76a627	0.2408682
5	0xbe8373ff	-0.25674435
6	0x3d9133b2	0.07089938
7	0x3e7248e8	0.23660624
8	0x3ec28650	0.37993097
9	0xbd83cc71	-0.064354785
10	0x3f0a70c3	0.5407831
11	0xbe9f04a8	-0.3105824
12	0x3e4a2043	0.1973887
13	0x3e5db070	0.21649337
14	0xbdf01763	-0.11723211
15	0x3e3a8c48	0.18217576
16	0xbf292ec1	-0.66086966
17	0xbe978def	-0.29600474
18	0x3efdf98e	0.49604458
19	0x3d8d6bf1	0.06905354
20	0x3ee78b0c	0.45223272
21	0x3e8df093	0.27722606
22	0x3ef011ea	0.46888667
23	0xbf0eccae	-0.55781066
24	0x3f135ee7	0.57566684
25	0xbf0235b2	-0.5086318
26	0xbdaa1a5b	-0.08305808
27	0xbf116057	-0.5678763
28	0x3db32439	0.08747143
29	0x3e92baa2	0.28658015
30	0x3ee3213f	0.44361302
31	0x3f1172cb	0.56815785
32	0xbeba0ea3	-0.36339292
33	0x3dfba62d	0.12287555
34	0x3f0fc44e	0.5615891
35	0x3e3e66f4	0.18593961
36	0xbec2ac5e	-0.3802213
37	0xbf256f87	-0.646233
38	0x3d40f155	0.047105152
39	0xbed1a613	-0.40947017
40	0x3f176fc0	0.5915489
41	0xbe25825f	-0.16163014
42	0x3ccac4ba	0.02475201
43	0xbecbdfbe	-0.3981914
44	0x3e8b3649	0.27189854
45	0x3b899abd	0.0041993544
46	0x3f247078	0.64234114
47	0x3efee59a	0.49784547
48	0x3e6392e8	0.22224009
49	0x3ef874cd	0.48526612
50	0xbca53868	-0.020168498
51	0x3ed47b69	0.41500404
52	0xbdc2d1d2	-0.09512676
53	0x3eb5b513	0.3548971
54	0xbebc8e1a	-0.36827165
55	0x3f183aef	0.59464926
56	0xbeb7adff	-0.35874936
57	0xbe926267	-0.285907
58	0xbf21fe15	-0.63278323
59	0xbecac61c	-0.3960427
60	0x3b1ad58e	0.0023625824
61	0xbf0d59ff	-0.5521545
62	0x3e77faab	0.24216716
63	0xbe767ed4	-0.24071819
64	0x3f262a2a	0.6490809
65	0xbf0620d7	-0.5239386
66	0x3d635fe4	0.05551137
67	0xbdadaaf8	-0.08479875
68	0xbf13440e	-0.5752572
69	0xbe0982fb	-0.13428871
70	0xbef3fb21	-0.47652534
71	0x3e8c3d08	0.27390313
72	0xbe6b4f4f	-0.22979473
73	0x3f3baa53	0.7330677
74	0x3e4c03ee	0.19923374
75	0x3e697655	0.22799046
76	0xbe4584d8	-0.19288957
77	0x3eae9fbc	0.34106243
78	0x3e43c417	0.19117771
79	0xbf20a3a7	-0.62749714
80	0x3ed2cf58	0.41173816
81	0xbd911406	-0.07083897
82	0x3f2d6275	0.6772836
83	0x3e7b2d05	0.24528892
84	0xbddb12ee	-0.1069697
85	0xbf2ccaff	-0.6749725
86	0xbdb43b2a	-0.08800347
87	0x3da6bc7c	0.08141419
88	0xbf2fd54c	-0.6868484
89	0x3ef50648	0.47856355
90	0x3edf1bbd	0.4357585
91	0x3f224bc3	0.63396853
92	0xbeb7720a	-0.35829192
93	0x3ebad7c6	0.36492747
94	0xbf102c37	-0.56317466
95	0xbdd132e7	-0.10214787
96	0xbd180e8f	-0.03712326
97	0x3ef1625d	0.47145358
98	0x3d9f26be	0.07771061
99	0x3e42eaa8	0.19034827
100	0xbeea8e21	-0.4581156
101	0x3e0069ac	0.1254031
102	0xbef01c2d	-0.46896496
103	0xbf1dd6fa	-0.61656153
104	0xbe504c3c	-0.20341581
105	0x3e8f62b8	0.28005004
106	0xbd1b8d10	-0.037976325
107	0xbeef94a0	-0.4679308
108	0xbec64c84	-0.38730252
109	0x3f1a2bbb	0.6022298
110	0xbe6c8581	-0.23097803
111	0xbe948da4	-0.29014313
112	0x3f18bd21	0.5966359
113	0xbefa5b58	-0.48897815
114	0xbe91f634	-0.2850815
115	0x3f0aabbd	0.541683
116	0x3eacb2c2	0.3373013
117	0x3f158854	0.58411145
118	0xbf048832	-0.5177032
119	0x3ed540df	0.41651055
120	0x3e6f7800	0.2338562
121	0x3ed38a18	0.41316295
122	0x3ebc65e6	0.36796492
123	0x3dcf7d57	0.101313286
124	0x3f229280	0.6350479
125	0xbee97612	-0.45597893
126	0xbdf4fdfb	-0.119625054
127	0xbee46f53	-0.44616184
128	0x3dc141bb	0.09436365
129	0xbd0d46d0	-0.03449136
130	0x3ef6f73c	0.482355
131	0x3d467bc4	0.048457876
132	0x3d23a370	0.039950788
133	0x3e9ad93e	0.30243868
134	0x3ed45aef	0.41475627
135	0x3d0901c0	0.033448935
136	0x3f3288c5	0.69739944
137	0x3efedf78	0.49779868
138	0xbe9dd5ad	-0.30827084
139	0x3e845854	0.2584864
140	0x3e8d6921	0.2761927
141	0x3e9d8b83	0.30770501
142	0x3e7e0db9	0.24809922
143	0x3e99fa82	0.30073935
144	0xbd197815	-0.037468035
145	0x3ed2bfe4	0.41162026
146	0xbda56643	-0.080761455
147	0x3e43aeb5	0.19109614
148	0xbf065c80	-0.52484894
149	0x3da2a998	0.07942504
150	0x3ebd14b7	0.36929867
151	0xbed92e15	-0.4241797
152	0xbee4a255	-0.446551
153	0x3ef364c7	0.47537825
154	0xbd94affc	-0.07260129
155	0x3e813889	0.25238445
156	0x3ee5d6a8	0.44890332
157	0x3ef4be24	0.47801316
158	0x3eded9d1	0.43525556
159	0x3e8d5f5d	0.2761182
160	0xbc3cd795	-0.011526008
161	0x3d8eaf69	0.069670506
162	0x3ebd474c	0.36968458
163	0x3c8ea833	0.017414188
164	0x3edd08a4	0.43170655
165	0x3ecd146d	0.40054646
166	0x3e780499	0.24220504
167	0x3e62b774	0.22140294
168	0x3df72f73	0.12069597
169	0x3f2dfee9	0.6796709
170	0xbebc44ab	-0.3677114
171	0xbe9dd8b1	-0.30829385
172	0x3ed7b8c3	0.4213315
173	0xbebccdf2	-0.36875874
174	0xbdcd0aa1	-0.10011793
175	0xbf098bd1	-0.5372897
176	0xbe48ed54	-0.19621783
177	0x3e85c246	0.2612478
178	0x3ed42906	0.41437548
179	0x3e8d11bf	0.27552602
180	0x3d341559	0.04396567
181	0x3f272185	0.6528552
182	0xbeb49329	-0.35268524
183	0xbe2a504b	-0.16632192
184	0xbd2b9d0a	-0.04189781
185	0x3ed662c0	0.41872215
186	0xbd659f60	-0.056060195
187	0xbe9c1d0e	-0.30490917
188	0x3eb64a06	0.3560335
189	0xbcf3a3c4	-0.029741175
190	0x3e377f39	0.17919625
191	0x3adb23fc	0.0016719098

net.0.bias f4 [64]
0	0xbe50924c	-0.20368308
1	0xbee31058	-0.44348407
2	0xbf0a724c	-0.54080653
3	0xbe673cb2	-0.22581747
4	0x3d2be98d	0.04197078
5	0x3f04a5e8	0.5181565
6	0x3f1fc234	0.62405705
7	0x3eb0f95c	0.34565246
8	0xbee755d8	-0.4518268
9	0x3eb33536	0.35001534
10	0xbd4b31b6	-0.049607955
11	0x3ec0788f	0.3759198
12	0x3f025012	0.5090343
13	0xbf0b5443	-0.5442545
14	0xbe0f7257	-0.14008461
15	0x3e19730b	0.14985292
16	0xbed43648	-0.41447663
17	0x3e093cf4	0.13402158
18	0x3ebcec7d	0.36899176
19	0x3db168ba	0.08662553
20	0xbdb4bf58	-0.088255584
21	0xbef24c16	-0.47323674
22	0xbe236e63	-0.15960078
23	0x3e57a6de	0.21059749
24	0xbea273cf	-0.3172898
25	0xbf1be21f	-0.6089191
26	0xbed0230f	-0.40651748
27	0xbf1242a5	-0.5713294
28	0x3e464a49	0.19364275
29	0xbe2c0eec	-0.16802567
30	0x3ea200b5	0.31641164
31	0x3e556529	0.20839371
32	0xbe45df88	-0.19323552
33	0xbdfdf17b	-0.12399574
34	0xbc8a11d3	-0.016854202
35	0xbf187ff7	-0.5957026
36	0x3f00d4b8	0.50324583
37	0x3eaa733e	0.33291048
38	0x3d2888d0	0.0411461
39	0x3e94b937	0.29047558
40	0xbf09f115	-0.53883487
41	0xbf085044	-0.53247476
42	0xbe415048	-0.18878281
43	0x3e27cfa1	0.16387798
44	0x3eb13793	0.34612712
45	0x3e1ffe15	0.15624268
46	0xbded9f79	-0.116026826
47	0xbf04df1a	-0.51902926
48	0x3f0f2db7	0.5592913
49	0x3ebd1e01	0.36936954
50	0x3e89b9a6	0.2689945
51	0x3d35128c	0.04420714
52	0xbef2593a	-0.473337
53	0x3e89ef0b	0.26940188
54	0x3ef237f1	0.47308305
55	0xbd38491f	-0.04499161
56	0x3ed4e07c	0.41577518
57	0x3ce45943	0.027874595
58	0xbdaccca4	-0.084374696
59	0xbeac54a8	-0.33658338
60	0xbe164a6e	-0.1467683
61	0x3eb82e49	0.35972813
62	0xbe30d20b	-0.17267625
63	0xbee6c114	-0.45069182

net.2.weight f4 [64, 64]
0	0x3e3eae83	0.18621258
1	0x3dc47f3a	0.09594579
2	0x3dc72fc1	0.09725905
3	0xbd061f45	-0.032744665
4	0xbdd2ebd7	-0.10298889
5	0x3d135a05	0.03597452
6	0x3d80d57f	0.06290721
7	0xbb962f3a	-0.0045832666
8	0x3d82da96	0.06389348
9	0x3dcf4980	0.10121441
10	0x3e0cb755	0.1374181
11	0x3be15bd9	0.006877404
12	0xbe40399c	-0.18771976
13	0xbd10b960	-0.035333037
14	0xbdc7e9dc	-0.09761402
15	0x3c9811c8	0.018563166
16	0x3d91b8af	0.07115304
17	0xbd85cb6d	-0.06532941
18	0x3d997c64	0.07494429
19	0x3cc84f3a	0.02445184
20	0x3be4887b	0.0069742776
21	0x3bd1997b	0.00639647
22	0x3e0d50d5	0.13800366
23	0xbd880f27	-0.06643515
24	0x3e126db1	0.14299656
25	0x3d0674b6	0.032826148
26	0x3d96d00e	0.07363902
27	0x3cd0f881	0.02550912
28	0xbd4c74df	-0.049916144
29	0xbdd717ff	-0.10502624
30	0xbbe710ae	-0.007051549
31	0xbe115681	-0.14193155
32	0x3d167cf3	0.036740255
33	0xbdeaeb0e	-0.114706144
34	0x3d363f0e	0.044493727
35	0x3e0d4f3a	0.13799754
36	0x3d33b7fe	0.04387664
37	0x3de91506	0.11380963
38	0x3b4e0718	0.0031437334
39	0xbdc9ca6b	-0.09853061
40	0x3e41ebbd	0.18937583
41	0xbcb0b4c9	-0.02157058
42	0x3c87e80e	0.016590144
43	0x3da25fd7	0.07928436
44	0xbc95657d	-0.01823687
45	0xbd999007	-0.07498174
46	0x3ddc90a5	0.10769776
47	0x3d61b92f	0.055108245
48	0xbe096695	-0.13418038
49	0xbc1ef68b	-0.009702335
50	0xbe0d0a6b	-0.13773505
51	0xbd777dcb	-0.0604227
52	0xbd91b1fc	-0.07114026
53	0x3d092856	0.033485733
54	0xbd200a55	-0.039072353
55	0xbc9a308c	-0.018821977
56	0x3d4fe860	0.05075872
57	0xbd56b0d1	-0.05241472
58	0xbd4baa2f	-0.049722847
59	0xbdeb1957	-0.114794426
60	0x3e85b1b9	0.26112154
61	0xbdd1d43f	-0.10245561
62	0x3dbb4032	0.09143104
63	0xbcc65b1b	-0.024213364
64	0xbe0b75cc	-0.13619155
65	0xbde90f2c	-0.11379847
66	0xbc9d9188	-0.019234434
67	0xbe0546e8	-0.1301533
68	0x3dbaa8ec	0.091142505
69	0x3d81e140	0.06341791
70	0x3d43323f	0.04765534
71	0xbd47bbc6	-0.04876306
72	0xbc9aa15b	-0.018875768
73	0x3d8e2311	0.06940282
74	0xbd3d97a9	-0.046287213
75	0xbd7d5dbb	-0.061856966
76	0xbc372a7d	-0.011179564
77	0x3d3238d8	0.04351124
78	0xbdb38184	-0.087649375
79	0xbd607c5e	-0.054806106
80	0xbd75b9d7	-0.059991684
81	0x3d044285	0.03229
82	0x3d709bff	0.05874252
83	0x3c8bbabc	0.017056815
84	0xbdb76e57	-0.089565925
85	0xbd25c22d	-0.040468384
86	0xbd9ef62e	-0.07761799
87	0x3e12a7ae	0.14321777
88	0xbe92e4d5	-0.2869021
89	0xbd88635a	-0.06659575
90	0xbc9ce367	-0.019151403
91	0x3df26e08	0.11837393
92	0xbd80610a	-0.06268509
93	0x3e0824a1	0.13295223
94	0xbd3e9d83	-0.046536934
95	0x3e213ba7	0.15745412
96	0xbe0749a4	-0.13211685
97	0xbca7e2d8	-0.02049391
98	0x3d811fe4	0.06304911
99	0xbbb09053	-0.0053882985
100	0x3db2241b	0.08698293
101	0xbbca39a7	-0.0061714235
102	0x3d7e358f	0.062062796
103	0xbd23439a	-0.03985939
104	0x3d90df73	0.070738696
105	0x3d599136	0.053117
106	0xb996914e	-0.0002871849
107	0xbd3ec349	-0.046572957
108	0xbd506c1f	-0.050884362
109	0xbdf2105c	-0.118195266
110	0xbd0495cd	-0.032369424
111	0xbda38c52	-0.07985748
112	0x3d41dabb	0.04732774
113	0x3d8b5306	0.06802945
114	0x3e34595e	0.17612216
115	0x3daa43bf	0.08313703
116	0x3d3538a0	0.044243455
117	0xbd38ad78	-0.045087308
118	0xbd87f587	-0.066386275
119	0x3d42e7d5	0.047584374
120	0x3adeaa3b	0.0016987988
121	0xbdc2d4de	-0.095132574
122	0xbdd46b1c	-0.10371992
123	0x3db82020	0.08990502
124	0xbd7b5c26	-0.061367176
125	0xbcb6e617	-0.022326512
126	0x3dda74b7	0.10666793
127	0x3d905af6	0.070485994
128	0xbce3539d	-0.02774983
129	0xbe173098	-0.14764631
130	0xbdf22a25	-0.11824445
131	0x3d0398d8	0.032128185
132	0x3dc23545	0.094828166
133	0xbe0769a7	-0.13223897
134	0x3cc93fca	0.02456655
135	0x3e0ae3cc	0.1356346
136	0x3d69db9b	0.057094198
137	0xbac01f82	-0.0014657828
138	0x3d4e5fda	0.05038438
139	0x3da96956	0.08272044
140	0x3ddb09c6	0.106952235
141	0x3dbda9f1	0.092609294
142	0x3cbcff00	0.023070812
143	0xbd36377d	-0.04448651
144	0xbca2aef9	-0.019858824
145	0x3da9fd54	0.08300272
146	0x3df5142b	0.11966737
147	0x3e007f9c	0.12548679
148	0x3d3bf7ad	0.0458905
149	0xbd9ee641	-0.07758761
150	0xbde4b943	-0.11168148
151	0xbc45012f	-0.012024208
152	0x3d9ad054	0.07559267
153	0xbe0bfa4e	-0.13669702
154	0x3d135243	0.035967123
155	0xbd6c2675	-0.057653863
156	0xbcf4703c	-0.029838674
157	0x3be06de9	0.00684904
158	0x3d9280f1	0.071535
159	0x3d3c51b8	0.04597637
160	0x3e017a73	0.12644367
161	0x3d0d407f	0.034485336
162	0xbd243a2e	-0.040094547
163	0xb8271df1	-3.9843788e-05
164	0xbdd8f947	-0.10594421
165	0xbd322f27	-0.043502
166	0x3dd40ffd	0.10354612
167	0x3d006afc	0.03135203
168	0xbe313a72	-0.17307451
169	0xbdcae17b	-0.09906288
170	0xbc581231	-0.013187931
171	0x3d61ae2b	0.05509774
172	0x3d89c182	0.06726362
173	0xbdf78ede	-0.12087797
174	0x3cbb2aa9	0.02284749
175	0x3cd65168	0.026161864
176	0x3cec7d4c	0.02886834
177	0xbcdd1c18	-0.026990935
178	0x3e29c3df	0.16578625
179	0x3d83e892	0.06440844
180	0xbc2e4c54	-0.010638315
181	0x3d2ffee9	0.04296771
182	0x3ddd1a76	0.10796063
183	0x3b9dcc3a	0.0048156055
184	0xbd0a53c4	-0.03377129
185	0x3be2a249	0.0069163186
186	0x3bf63049	0.0075130803
187	0xbd9d4370	-0.07678878
188	0x3cc82629	0.024432259
189	0x3d77de5f	0.060514804
190	0xbdca7adf	-0.09886717
191	0xbe16b1f4	-0.14716321
192	0xbd06fb8e	-0.032954745
193	0xbd5cd14f	-0.05391055
194	0xbd909398	-0.07059401
195	0xbe1f81f2	-0.15576914
196	0xbe425f11	-0.18981577
197	0x3e972320	0.29518986
198	0x3837d468	4.382842e-05
199	0xbda79fd4	-0.08184782
200	0x3e3f03f3	0.1865385
201	0xbc497dc3	-0.01229805
202	0xbe83079f	-0.25591752
203	0xbdadfec7	-0.084958605
204	0x3e79518c	0.24347514
205	0xb9f8b8a1	-0.00047439805
206	0x3e8968e1	0.2683783
207	0xbe4646e2	-0.19362977
208	0xbe89e3c1	-0.26931575
209	0x3d32dd67	0.043668177
210	0xbe22cdda	-0.15898839
211	0x3e6231bc	0.22089285
212	0x3e6515d9	0.22371615
213	0xbd7a781e	-0.06114971
214	0x3d5c26b0	0.053747833
215	0x3db2f564	0.08738211
216	0xbea363e8	-0.3191216
217	0x3d90b1d1	0.07065166
218	0x3e712c5d	0.2355208
219	0xbe8c4145	-0.27393547
220	0x3ead788c	0.33881032
221	0x3e2e6f4f	0.17034648
222	0xbe2f75fe	-0.17134854
223	0x3e006987	0.12540255
224	0xbed574bf	-0.41690633
225	0x3e24a59e	0.16078803
226	0x3e675cbf	0.22593974
227	0xbc23b5d9	-0.009992086
228	0xbe82650b	-0.25467715
229	0xbda9e6c3	-0.082959674
230	0xbd96638d	-0.073432066
231	0x3c97ae91	0.018515857
232	0xbe96b531	-0.29435113
233	0xbda03e5d	-0.07824395
234	0x3e1cd3bf	0.1531515
235	0xbdee0a22	-0.116230264
236	0x3d0b5fcf	0.034026917
237	0xbe0a4ba1	-0.13505413
238	0xbe8e67dc	-0.27813613
239	0xbe8458c3	-0.2584897
240	0xbe292854	-0.1651929
241	0x3e016f25	0.12640055
242	0x3e85f400	0.2616272
243	0x3dcbc296	0.09949224
244	0xbe5d74d0	-0.21626592
245	0x3d0b2e20	0.033979535
246	0x3e0068ce	0.1253998
247	0xbe39e311	-0.18153025
248	0xbe1a8983	-0.15091519
249	0xbe0cf0ff	-0.13763808
250	0x3dc197db	0.09452792
251	0xbe823d0a	-0.25437194
252	0xbea66c07	-0.32504293
253	0x3d831d78	0.06402105
254	0x3e054249	0.13013567
255	0xbd642acb	-0.055704873

net.2.bias f4 [64]
0	0xbdad62b7	-0.08466094
1	0x3de99c7b	0.114067994
2	0x3e288904	0.16458517
3	0x3dab2ccc	0.08358154
4	0xbd6659a1	-0.05623782
5	0x3e1a9ffe	0.15100095
6	0xbd90c893	-0.070695065
7	0xbbbd247d	-0.005772172
8	0xbe1d7283	-0.15375714
9	0xbc27f17c	-0.010250445
10	0x3db3c78c	0.08778295
11	0xbd33937c	-0.043841824
12	0x3e01b6c8	0.12667382
13	0x3dfef562	0.12449147
14	0xbdb437e1	-0.087997206
15	0xbcc9be67	-0.024626924
16	0x3d9a685f	0.075394385
17	0x3c02389a	0.007948065
18	0xbe11c341	-0.1423464
19	0xbde90f82	-0.11379911
20	0x3d24ceeb	0.040236395
21	0x3d1663a2	0.03671611
22	0x3d7cda5e	0.06173169
23	0x3d624441	0.055240873
24	0x3da5ceeb	0.08096107
25	0xbda0fb22	-0.078604
26	0x3d3f5751	0.04671413
27	0xbda8c8cb	-0.08241423
28	0xbd2d4bed	-0.042308737
29	0x3d42af31	0.047530357
30	0xb974346a	-0.00023289179
31	0xbd20f294	-0.03929384
32	0x3ccbb71c	0.024867587
33	0xbd0769aa	-0.033059753
34	0x3de4cc85	0.111718215
35	0xbc69b196	-0.014263531
36	0x3e11cb59	0.14237727
37	0x3d939642	0.07206394
38	0xbd907e46	-0.07055335
39	0xbe1daf79	-0.15398969
40	0xbb3e3e73	-0.0029028922
41	0xbdf8e9f3	-0.12153997
42	0x3e2b7670	0.16744399
43	0x3bee6daf	0.007276259
44	0xbc01e8b9	-0.007929021
45	0xbd953f63	-0.07287481
46	0xbda6e324	-0.081487924
47	0xbdf9a17e	-0.12189005
48	0x3e0d2d5b	0.13786833
49	0x3e2b2caf	0.16716264
50	0x3e13b7d7	0.14425598
51	0x3ca1e9a8	0.019764736
52	0x3d192567	0.037389185
53	0x3dc3a5c8	0.09553105
54	0xbdef66b5	-0.11689512
55	0x3d415090	0.04719597
56	0xbe141c74	-0.14463979
57	0xbe1037c9	-0.1408378
58	0xbe184c18	-0.14872777
59	0x3dbaad30	0.09115064
60	0x3d0e6d2e	0.03477209
61	0x3de93155	0.113863625
62	0x3db7aeef	0.08968913
63	0xbda5f642	-0.081036106

net.4.weight f4 [64, 64]
0	0x3dcb5c27	0.09929686
1	0xbc277e0a	-0.010222921
2	0xbe05d22a	-0.13068452
3	0xbe80d132	-0.25159603
4	0xbe3050fe	-0.17218396
5	0x3d194760	0.037421584
6	0x3e525653	0.20540743
7	0x3dc35a89	0.095387526
8	0xbc563b71	-0.013075695
9	0x3e0a12a3	0.13483672
10	0xbd96f9f8	-0.073718965
11	0xbe97b454	-0.29629767
12	0x3da58b56	0.08083217
13	0xbd84d7fb	-0.064865075
14	0x3e0302c6	0.12794027
15	0x3e1082e1	0.14112426
16	0x3d6d68ad	0.057961155
17	0xbc507a05	-0.012724404
18	0xbe10c8a4	-0.14139038
19	0x3e85ed21	0.26157477
20	0x3d62e3bd	0.05539297
21	0xbdb6ee4d	-0.08932171
22	0xbce5e9b6	-0.028065544
23	0xbdf10684	-0.11768821
24	0xbe74c6f4	-0.2390402
25	0xbdd4302c	-0.103607506
26	0x3e7133ce	0.23554918
27	0x3e7de390	0.2479384
28	0xbebab6a1	-0.3646746
29	0xbca8beab	-0.02059873
30	0xbe528639	-0.20559014
31	0x3dcbe7e5	0.0995634
32	0xbdbff02b	-0.0937198
33	0xbdf209f4	-0.11818305
34	0x3da1dd6a	0.079035595
35	0xbda9006f	-0.08252036
36	0x3e185a0c	0.148781
37	0xbd9fbea0	-0.07800031
38	0xbdaaae80	-0.083340645
39	0x3d9b9a28	0.07597762
40	0x3e364e30	0.17803264
41	0x3dd98698	0.10621375
42	0xbb0d67f3	-0.002157685
43	0xbdc42bb1	-0.09578646
44	0xbe4b74c8	-0.19868767
45	0x3d8c5a79	0.06853194
46	0xbe26a9cf	-0.16275714
47	0xbdabb693	-0.08384433
48	0xbdc38b69	-0.09548075
49	0xbe14b6f0	-0.1452291
50	0xbda8bf6e	-0.08239637
51	0xbeb67712	-0.35637718
52	0xbdffc636	-0.124889776
53	0x3ce655ad	0.028117025
54	0xbcb1c85f	-0.02170199
55	0x3cab913a	0.020943273
56	0x3e47b9dc	0.19504493
57	0xbe837849	-0.25677708
58	0xbdb5c8fd	-0.08876226
59	0x3d16c05a	0.036804534
60	0x3c9bf5b7	0.019038064
61	0xbe8a427a	-0.27003843
62	0x3d908da2	0.07058264
63	0x3e039ec1	0.12853529
64	0xbcc5a92d	-0.02412852
65	0xbc1a8872	-0.009431945
66	0x3b6461b0	0.0034848265
67	0xbe511efe	-0.20421979
68	0xbdafdeae	-0.08587395
69	0xbda74960	-0.08168292
70	0x3dc4fa09	0.09618003
71	0x3de5e938	0.112261236
72	0x3e024612	0.12722042
73	0x3d3d2327	0.046176102
74	0xbd8b4b63	-0.06801488
75	0xbe250b4b	-0.16117589
76	0xbdb04f12	-0.086088315
77	0xbcae73ca	-0.021295447
78	0x3d917585	0.07102493
79	0x3de7e3d8	0.113227546
80	0xbdbb798a	-0.09154041
81	0xbde45115	-0.11148278
82	0x3dc929da	0.09822436
83	0xbd6a49a9	-0.057199154
84	0xbce50353	-0.027955687
85	0xbd327edc	-0.043578014
86	0x3d5484c4	0.051884428
87	0xbda168cf	-0.07881319
88	0xbd157876	-0.036491834
89	0x3e06b650	0.13155484
90	0x3e5f07f6	0.2178038
91	0xbd63567d	-0.055502404
92	0xbdf2072a	-0.11817773
93	0xbcfc59d6	-0.030804556
94	0xbdee09ed	-0.11622987
95	0x3d84059e	0.06446384
96	0xbdeb30cb	-0.11483916
97	0xbe0e0377	-0.13868509
98	0x3d6637f9	0.056205723
99	0xbc216592	-0.009850876
100	0xbdd314fa	-0.10306735
101	0x3dcbe63e	0.099560246
102	0xbe23b744	-0.15987879
103	0x3d117711	0.03551394
104	0x3ccf9b69	0.02534266
105	0x3e0cf1f3	0.13764171
106	0xbdf012a5	-0.11722306
107	0xbdcd6f8f	-0.10031044
108	0x3b4fa9af	0.0031686833
109	0x3d822afd	0.063558556
110	0xbdd9fd4c	-0.10644016
111	0x3d123403	0.035694133
112	0xbe08cec3	-0.13360123
113	0x3d00f309	0.031481776
114	0x3d8bb0bb	0.06820818
115	0x3e51e5fc	0.20497888
116	0xbdfe9bbd	-0.124320485
117	0x3c22edff	0.009944438
118	0x3c6c73c6	0.014431899
119	0x3d8dfa84	0.06932548
120	0xbd76ca97	-0.0602518
121	0x3d8df013	0.06930556
122	0xbafb0d82	-0.0019153806
123	0x3d2874c0	0.041126966
124	0xbc035439	-0.008015686
125	0xbde55c24	-0.11199215
126	0xbca61925	-0.020275662
127	0xbdc975b9	-0.09836907
128	0xbda1c4d3	-0.07898869
129	0xbd172baa	-0.036906876
130	0xbc7d540b	-0.015461932
131	0xbd7c72c8	-0.0616329
132	0x3cb23d44	0.02175773
133	0x3df2c554	0.118540436
134	0x3e61eea5	0.22063692
135	0xbe050c9f	-0.12993096
136	0xbcc015de	-0.023447927
137	0xb8b348db	-8.5489555e-05
138	0x3e8a0fb0	0.26965094
139	0x3e1f7506	0.15571985
140	0x3de5cf98	0.11221236
141	0xbd939452	-0.07206024
142	0x3d30f909	0.04320625
143	0xbdf229a7	-0.11824351
144	0xbe3decf0	-0.18547416
145	0x3d4bf170	0.0497908
146	0xbd32206c	-0.04348795
147	0xbdf13de5	-0.117793836
148	0xbd6955da	-0.05696664
149	0xbd9a1ffe	-0.07525633
150	0xbd11096b	-0.035409372
151	0x3dfe0b16	0.12404458
152	0x3d5d3995	0.054009993
153	0x3d34a93c	0.044106707
154	0xbe737304	-0.23774344
155	0xbe153c6a	-0.14573827
156	0x3e5379b7	0.206519
157	0x3d5dfd2b	0.054196518
158	0x3cfda5d3	0.03096286
159	0xbd272ecd	-0.040816117
160	0x3dd56cca	0.104211405
161	0x3de37107	0.11105543
162	0xbd52fd15	-0.05151089
163	0x3e3691c3	0.17829041
164	0xbdac3dbf	-0.08410215
165	0x3da06b09	0.07832915
166	0xbcbc2a73	-0.02296946
167	0xbe0d0935	-0.13773043
168	0x3d089fd6	0.033355556
169	0xbbffba3a	-0.0078041824
170	0x3c8e860a	0.0173979
171	0x3d3551e8	0.044267565
172	0x3d9c6329	0.07636101
173	0xbdc9793d	-0.098375775
174	0x3c188927	0.009310043
175	0x3e0047b6	0.12527356
176	0x3e003882	0.12521556
177	0xbe1da2e1	-0.15394165
178	0xbdd1f843	-0.1025243
179	0x3e35f106	0.17767724
180	0x3e41e636	0.18935475
181	0xbd423c0c	-0.047420546
182	0xbd83db92	-0.06438364
183	0x3cfc5667	0.030802919
184	0xbd07c516	-0.03314694
185	0x3e26386e	0.16232464
186	0x3e05b6b6	0.1305798
187	0xbcfd669a	-0.030932713
188	0x3c16e37d	0.009209511
189	0xbdbfbce1	-0.09362198
190	0xbddf3364	-0.10898474
191	0xbd0becdf	-0.034161445
192	0x3ddd94cc	0.108193964
193	0xbdf8ea4d	-0.12154064
194	0xbdfc6072	-0.12323083
195	0xbd8c59ff	-0.06853103
196	0x3da8e5bd	0.08246944
197	0x3dc01dd6	0.09380691
198	0x3e1bff74	0.15234166
199	0xbd985cfa	-0.07439609
200	0x3e07ec89	0.13273825
201	0x3d14757d	0.036244858
202	0xbc265796	-0.010152718
203	0xbe3cbb94	-0.1843093
204	0x3de17c66	0.11010055
205	0x3be5551a	0.0069986703
206	0x3d4587f7	0.04822537
207	0x3e8bb5ad	0.27287045
208	0x3cdaba9a	0.026700307
209	0x3da7a2d1	0.08185352
210	0x3d727e96	0.059202753
211	0x3df9d0ca	0.121980265
212	0xbd4e7367	-0.050403025
213	0xbcf220e4	-0.0295567
214	0xbd572801	-0.052528385
215	0x3a5ec7bf	0.00084983924
216	0x3dcbc239	0.099491544
217	0x3dd0a9b3	0.101886176
218	0x3dd2910e	0.10281573
219	0x3d8969cf	0.067096345
220	0xbda8d369	-0.08243448
221	0xbe188cfa	-0.14897528
222	0x3d8be84c	0.068314165
223	0x3d69da8a	0.05709318
224	0xbcfbfc1a	-0.03075986
225	0xbd3cc041	-0.046081785
226	0xbd9bb8a2	-0.07603575
227	0x3e03a9cd	0.12857743
228	0x3d9dd720	0.077070475
229	0xbd1d7fb6	-0.038451873
230	0xbcdd8f3f	-0.027045844
231	0x3d50d068	0.05098
232	0x3d978601	0.07398606
233	0x3d3d925f	0.04628217
234	0x3cbc05c8	0.022951975
235	0xbdfb707e	-0.122773156
236	0xbc9e8855	-0.019352118
237	0x3e03a61f	0.12856339
238	0x3d918e81	0.071072586
239	0x3da5d39a	0.080970004
240	0xbde97489	-0.113991804
241	0xbd87c96f	-0.06630217
242	0x3d9d383d	0.07676742
243	0xbd8b49f1	-0.068012126
244	0xbc9aa46b	-0.018877229
245	0x3c8a831b	0.01690822
246	0x3d323a03	0.043512356
247	0x3dc6a5d1	0.09699596
248	0x3e293ce1	0.1652713
249	0xbd23bdd8	-0.03997597
250	0xbd62be7e	-0.05535745
251	0xbe022b66	-0.12711868
252	0xbdc9a1be	-0.09845303
253	0xbd91cb38	-0.07118839
254	0xbe1b58ef	-0.15170644
255	0x3d189044	0.037246957

net.4.bias f4 [64]
0	0x3d9a4de9	0.075343914
1	0xbdf2dbec	-0.11858353
2	0xbd5e0cfd	-0.054211605
3	0xbdc4e7bd	-0.09614513
4	0xbcf0fece	-0.029418375
5	0x3d616569	0.055028353
6	0xbe06f7af	-0.13180421
7	0xbdf06a5a	-0.11739035
8	0x3d93ddcf	0.07220041
9	0x3d602fe9	0.05473319
10	0xbdf6214a	-0.12018068
11	0xbde0019a	-0.109378055
12	0x3dfcc814	0.123428494
13	0xbd955b32	-0.07292785
14	0x3dd1f18a	0.10251148
15	0xbcd7a8c1	-0.026325585
16	0xbd300ef9	-0.04298303
17	0x3c8f9bec	0.017530404
18	0xbb1fb261	-0.0024367797
19	0x3d326cc3	0.043560755
20	0x3d41215b	0.04715095
21	0x3e00a30e	0.125622
22	0x3dea71e7	0.114475064
23	0xbdbbcbad	-0.091697074
24	0xbdb1cbc9	-0.08681447
25	0x3e0c9428	0.13728392
26	0x3c3bd437	0.01146417
27	0xbc99bc87	-0.018766655
28	0x3d8e9cb0	0.069634795
29	0x3e1f505a	0.15557995
30	0x3de28b5b	0.11061736
31	0x3c00d7b6	0.0078639295
32	0x3e137527	0.14400159
33	0x3e0a5272	0.13508013
34	0xbc544031	-0.012954758
35	0xbdb77eb2	-0.08959712
36	0x391609f0	0.00014308817
37	0x3d665e5c	0.05624233
38	0xbe01da6b	-0.12680976
39	0xbd331bfd	-0.043727864
40	0xbd82dfd6	-0.063903496
41	0x3e0af7a5	0.13571031
42	0xbd17b90b	-0.037041705
43	0x3dbb0e56	0.09133594
44	0xbd33599e	-0.043786637
45	0xbdb7325c	-0.08945152
46	0xbd43fae6	-0.047846697
47	0x3d55baee	0.052180223
48	0xbde5398e	-0.11192618
49	0x3e0651a5	0.13117082
50	0x3d94fd6f	0.07274901
51	0xbb7f16e4	-0.0038923556
52	0x3cb9a3b1	0.022661062
53	0x3d80a044	0.06280568
54	0x3c5ae945	0.01336128
55	0x3dd59e9f	0.10430645
56	0xbd054854	-0.03253968
57	0xbdb632b5	-0.0889639
58	0xbd1c9080	-0.038223743
59	0x3e0eb30b	0.13935487
60	0x3d4dd252	0.050249405
61	0xbda85620	-0.08219552
62	0xbda15806	-0.07878117
63	0xbc28ac7d	-0.010295031

net.6.weight f4 [1, 64]
0	0xbe5ab076	-0.21356377
1	0xbdb6c358	-0.089239776
2	0xbe1fb169	-0.1559502
3	0xbcd05c46	-0.025434624
4	0x3dfa09bb	0.12208887
5	0x3e0eac26	0.13932857
6	0xbd8ca529	-0.06867439
7	0xbe5159dc	-0.20444435
8	0xbd892774	-0.06696978
9	0x3b15c179	0.0022850914
10	0xbd88e059	-0.06683416
11	0x3b12f910	0.0022426285
12	0xbe0f015d	-0.13965364
13	0xbd8596cf	-0.06522905
14	0x3d40435a	0.04693923
15	0xbdead1aa	-0.114657715
16	0x3d54b5ed	0.05193131
17	0xbda30883	-0.07960608
18	0x3d58a6d5	0.05289348
19	0x3e003f89	0.12524237
20	0x3da949bc	0.08266017
21	0x3e32f94c	0.17477912
22	0x3e40be0d	0.18822499
23	0x3de737aa	0.11289914
24	0x3e109f4e	0.1412327
25	0x3d4259bf	0.04744887
26	0x3d92e1f9	0.07172007
27	0xbd41e4db	-0.047337394
28	0xbe79bebe	-0.24389169
29	0x3e40e13b	0.18835919
30	0x3da0f92f	0.07860028
31	0xbe0f76a2	-0.14010099
32	0x3da13b96	0.07872693
33	0x3e10186c	0.14071816
34	0xbddbc8d7	-0.107316665
35	0x3e20a7b2	0.1568897
36	0xbc0e6e87	-0.008693344
37	0xbc8392b4	-0.016061164
38	0xbdc1e19d	-0.094668604
39	0xbdb25fd8	-0.08709687
40	0xbd96e06c	-0.07367024
41	0xbdbf90c7	-0.09353786
42	0x3de795c9	0.11307866
43	0xbd856655	-0.06513659
44	0xb9cc597a	-0.00038976577
45	0xbe2ea454	-0.17054874
46	0xbdd8e9b4	-0.1059145
47	0x3c20e55d	0.0098203095
48	0xbe026c10	-0.12736535
49	0x3d5f6a66	0.05454483
50	0xbdd1d2fa	-0.10245319
51	0x3e188b33	0.1489685
52	0x3e32b3a3	0.17451338
53	0xbdfd4b29	-0.12367851
54	0x3e6fd5ef	0.23421453
55	0x3d7a3e55	0.0610946
56	0x3e3397cf	0.17538379
57	0xbe1a44b9	-0.15065278
58	0xbd6a2da9	-0.05717245
59	0x3dea19d2	0.11430706
60	0xbdcd7b4f	-0.10033285
61	0x3ddf27dd	0.10896275
62	0xbb8ca227	-0.004291791
63	0xbde52904	-0.11189464
