abc_bcs/u_t1.pth (torch, 37923 bytes, 7 tensors)

net.0.weight f4 [64, 3]
0	0x3ebf2763	0.37334737
1	0xbf160a37	-0.58609337
2	0x3d0a3e6a	0.03375093
3	0xbec28802	-0.3799439
4	0x3ec0d2bc	0.37660778
5	0xbd8ae0f0	-0.06781185
6	0x3e6049ff	0.21903227
7	0x3e9a60a3	0.30151853
8	0xbe4cb61d	-0.19991346
9	0x3edf8732	0.43657833
10	0xbebcfb62	-0.3691054
11	0xbedbda47	-0.4293997
12	0x3d85f04a	0.06539972
13	0x3e932bc6	0.28744334
14	0xbda78701	-0.08180047
15	0xbeacb2c5	-0.3373014
16	0x3ef97abe	0.48726457
17	0xbdfe4b3f	-0.12416696
18	0xbe879de2	-0.26487643
19	0x3f02a21f	0.5102863
20	0xbe493d21	-0.19652225
21	0x3d2857e8	0.04109946
22	0x3f1e35c5	0.61800796
23	0x3eb0742a	0.34463626
24	0xbe5f9e0b	-0.21837632
25	0xbef6729c	-0.48134315
26	0xbdd6d70b	-0.10490235
27	0xbcf2f46d	-0.029657567
28	0x3f1bc019	0.6083999
29	0xbe697e50	-0.2280209
30	0xbe655fa8	-0.22399771
31	0xbf082f5b	-0.5319726
32	0xbe6ac69c	-0.22927326
33	0xbd80dc2e	-0.06291996
34	0xbf0b8f77	-0.54515785
35	0xbe7543ac	-0.23951596
36	0x3edb8554	0.4287516
37	0xbeca728a	-0.3954051
38	0x3e524fb2	0.20538214
39	0x3ec5e431	0.3865066
40	0x3f238672	0.6387702
41	0x3d7f966d	0.062399317
42	0x3f02f8e9	0.51161057
43	0x3f213e2a	0.6298548
44	0xbe3ca265	-0.18421324
45	0xbe55846a	-0.20851293
46	0x3d944dbf	0.072413914
47	0xbe4401b5	-0.19141276
48	0x3e4fe93e	0.20303819
49	0xbc195526	-0.00935868
50	0x3ec83080	0.39099503
51	0xbebaab74	-0.36458933
52	0xbeda3c61	-0.4262419
53	0x3f103ff9	0.56347615
54	0xbea490be	-0.3214168
55	0xbf08e042	-0.5346719
56	0x3ed57281	0.41688922
57	0xbd21750b	-0.03941826
58	0x3e28289a	0.16421738
59	0x3ee8e184	0.45484555
60	0x3cab2a17	0.020894093
61	0x3f0854fb	0.5325467
62	0x3c253a45	0.010084693
63	0xbe6561ef	-0.2240064
64	0xbec51046	-0.38488978
65	0xbeabeec8	-0.33580613
66	0xbe0cc907	-0.13748561
67	0xbed5bdb7	-0.41746303
68	0xbb24dca5	-0.0025155928
69	0xbeb12ce6	-0.34604567
70	0x3d7a83cd	0.06116085
71	0x3e7630f5	0.24042113
72	0x3e69e28d	0.22840329
73	0xbceb2907	-0.028706087
74	0xbdf104eb	-0.11768516
75	0xbe378f5f	-0.17925785
76	0x3eba1093	0.3634077
77	0xbecbaa3f	-0.39778325
78	0x3edc2226	0.42994803
79	0xbf2810bd	-0.6565054
80	0x3e95fd62	0.29294878
81	0x3d1f225c	0.038851127
82	0x3ed2df35	0.41185918
83	0xbee2f2c9	-0.44325855
84	0x3e45d6b8	0.1932019
85	0xbe6e323a	-0.23261347
86	0xbeb4a982	-0.35285574
87	0xbe28d955	-0.16489156
88	0x3eaf3959	0.3422344
89	0x3ea1eed9	0.3162754
90	0xbd79d5ce	-0.060994916
91	0xbf363025	-0.7116721
92	0x3e30f074	0.17279226
93	0xbec26a9f	-0.3797197
94	0x3e5e7f1b	0.21728174
95	0xbe5a3edf	-0.21313046
96	0x3e6fee29	0.23430695
97	0xbe6aefb6	-0.22943005
98	0xbe8b3188	-0.27186227
99	0xbe9c9418	-0.30581737
100	0x3f0aa792	0.5416194
101	0x3da509f0	0.08058536
102	0x3da2f122	0.07956149
103	0x3ea8ddd1	0.32981732
104	0xbd39452e	-0.04523199
105	0x3e7ae468	0.24501193
106	0xbf295a8f	-0.66153806
107	0xbd6e5872	-0.058189817
108	0xbed1bb9e	-0.40963453
109	0x3e13db05	0.14439018
110	0xbdedff63	-0.11620977
111	0x3e6f31fe	0.23358914
112	0x3e3f75a5	0.18697222
113	0x3ed53926	0.41645163
114	0x3e337369	0.17524494
115	0xbf3168a4	-0.69300294
116	0xbe6eef48	-0.23333466
117	0x3d826891	0.06367601
118	0xbecd04cd	-0.40042725
119	0xbe282ca0	-0.16423273
120	0xbea9c482	-0.33157736
121	0x3e379a68	0.17929995
122	0xbf03a3e5	-0.5142196
123	0x3ee54ded	0.44786015
124	0x3f2a232e	0.6645993
125	0x3dadaba1	0.08480001
126	0x3d603951	0.05474216
127	0xbf048bea	-0.5177599
128	0x3ef35108	0.4752276
129	0x3cbdca93	0.023167884
130	0x3eea137c	0.4571799
131	0xbed5a55b	-0.4172772
132	0xbee3ae9c	-0.44469154
133	0xbf273cd3	-0.65327185
134	0xbe1044ab	-0.14088695
135	0x3c018958	0.00790628
136	0xbea30785	-0.31841674
137	0xbe296fad	-0.16546507
138	0x3ddc1bae	0.10747467
139	0x3c8e395d	0.017361337
140	0x3ec007e0	0.37506008
141	0x3ef31c09	0.47482327
142	0xbf2806dd	-0.6563547
143	0xbec3f6ea	-0.38274318
144	0xbf01a704	-0.5064547
145	0xbe7e1b22	-0.24815038
146	0x3e9fa7da	0.31182748
147	0xbea7d159	-0.32776907
148	0xbe7b91bc	-0.24567312
149	0x3e00a126	0.12561473
150	0xbed8badf	-0.4233007
151	0xbdc51e38	-0.096249044
152	0xbf15158c	-0.58236
153	0xbedcce7d	-0.43126288
154	0xbefdeb53	-0.495936
155	0x3eb498b1	0.35272744
156	0xbe9cc78e	-0.30620998
157	0x3f25b43f	0.6472816
158	0x3ebbd874	0.36688578
159	0x3dc9b652	0.09849228
160	0x3ef0a4d8	0.47000766
161	0x3c08d478	0.008351438
162	0xbd6ae1b7	-0.057344165
163	0xbeee4f78	-0.46545005
164	0xbe21163f	-0.15731142
165	0xbe412a16	-0.18863711
166	0xbdcaf4f6	-0.09910004
167	0x3ec406d6	0.38286465
168	0xbf1b48cd	-0.6065796
169	0x3f091a4f	0.5355577
170	0xbe514224	-0.20435387
171	0x3ec14e68	0.37755132
172	0x3efe6972	0.49689823
173	0xbdec634d	-0.115423776
174	0xbd8210fd	-0.063508965
175	0xbf29eaf7	-0.6637415
176	0xbe935a84	-0.28779995
177	0x3e9dfb3e	0.30855745
178	0xbf055009	-0.5207525
179	0xbe936400	-0.2878723
180	0x3c8d20c9	0.017227547
181	0xbe978a26	-0.29597586
182	0xbeb3a711	-0.350884
183	0xbe2dfe5a	-0.16991559
184	0x3ef9e1d7	0.48805115
185	0xbe68b47d	-0.22725101
186	0x3de00c90	0.10939896
187	0xbd3bc4de	-0.045842044
188	0xbeb35762	-0.35027605
189	0xbecbdcd2	-0.3981691
190	0xbe86f5e7	-0.26359484
191	0xbe41b1b3	-0.18915443

net.0.bias f4 [64]
0	0xbe6e2f94	-0.23260337
1	0x3eea4dc6	0.4576246
2	0xbdbb8981	-0.09157086
3	0x3eff74ab	0.49893698
4	0xbe5a5fe0	-0.21325636
5	0x3dad36fa	0.084577516
6	0xbd5359d4	-0.05159934
7	0xbc13239d	-0.008980659
8	0x3ec15359	0.37758902
9	0x3e9bc240	0.30421638
10	0xbeebd74e	-0.46062702
11	0x3f110a71	0.5665656
12	0xbf07ae9d	-0.53000814
13	0xbf1e9105	-0.6194003
14	0x3e0b56ec	0.13607377
15	0xbf12102a	-0.57055914
16	0x3ed47426	0.41494864
17	0xbe960468	-0.29300237
18	0x3ea96a7e	0.3308906
19	0x3e401f7c	0.1876201
20	0xbed07d51	-0.4072061
21	0xbe24d520	-0.16096926
22	0x3e5d17ca	0.21591106
23	0x3f180d79	0.5939556
24	0x3ef4d2f4	0.47817194
25	0xbda9b8ec	-0.08287224
26	0x3e2e243e	0.17006013
27	0x3e78dd06	0.24303064
28	0x3dcb8b10	0.099386334
29	0x3e5c88a8	0.21536505
30	0x3ef72326	0.48269004
31	0xbe6402c6	-0.22266683
32	0xbc14ad8a	-0.009074578
33	0x3d9dc724	0.07703999
34	0x3dfdeeef	0.123990886
35	0xbec4edf4	-0.38462794
36	0x3e1b2165	0.15149458
37	0xbede76a6	-0.43449897
38	0xbe8178c2	-0.25287443
39	0x3f0a56f6	0.5403894
40	0x3eaed2ec	0.34145296
41	0xbe09b20a	-0.13446823
42	0x3ec063a9	0.37576035
43	0x3d88540f	0.06656658
44	0x3ebd9c9e	0.37033552
45	0xbf170016	-0.58984506
46	0x3ee4a6a9	0.44658402
47	0xbe16eda3	-0.14739089
48	0xbe2eb67a	-0.17061797
49	0x3f13adbb	0.57686967
50	0xbedc3811	-0.43011525
51	0xbe935fd8	-0.2878406
52	0xbf15575d	-0.5833643
53	0xbf085f24	-0.53270173
54	0x3e4cff99	0.20019378
55	0xbe992b78	-0.29915977
56	0xbeaacaad	-0.33357754
57	0x3ead035c	0.33791625
58	0xbdc56599	-0.09638519
59	0x3e762854	0.24038821
60	0xbd2427d8	-0.04007706
61	0x3ecd78ca	0.40131217
62	0xbe5f6405	-0.21815498
63	0xbddd3418	-0.10800952

net.2.weight f4 [64, 64]
0	0x3d712947	0.058877256
1	0x3d8623a2	0.06549765
2	0xbd501623	-0.05080236
3	0x3d617e9e	0.055052392
4	0x3c211c08	0.009833343
5	0xbda3b568	-0.07993585
6	0xbdc4cb49	-0.09609086
7	0xbd81d74f	-0.06339895
8	0x3e2c6a18	0.16837347
9	0xbd9fd986	-0.07805161
10	0x3dd988a2	0.10621764
11	0x3d5ffcc5	0.05468442
12	0xbda165b9	-0.0788073
13	0xbe63641f	-0.22206162
14	0x3c1b471a	0.009477401
15	0x3d4fe2de	0.050753467
16	0xbd9cf4ad	-0.07663856
17	0xbdc5f810	-0.09666455
18	0x3da5515d	0.080721594
19	0xbd89985b	-0.067185126
20	0x3c440a96	0.0119654145
21	0xbcd19e70	-0.025588244
22	0x3d3da03f	0.0462954
23	0xbe1713b5	-0.14753611
24	0xbce90d7e	-0.028448816
25	0xbb5d006d	-0.0033722178
26	0x3e1b49b5	0.15164836
27	0x3c5b918d	0.013401401
28	0x3b83c9c3	0.0040218546
29	0xbc3d9526	-0.011571204
30	0x3e113113	0.14178877
31	0xbda29702	-0.07938959
32	0x3d53b190	0.05168301
33	0xbda7a41f	-0.081856005
34	0xbd5a4b8b	-0.0532947
35	0x3bb0c905	0.005395057
36	0xbb9d8d9c	-0.004808141
37	0xbd9ef445	-0.077614345
38	0xbd6305ca	-0.055425443
39	0xbd9fbde5	-0.077998914
40	0xbd688dae	-0.05677574
41	0xbd4fa3b7	-0.05069324
42	0x3e07ec79	0.13273801
43	0xbe4480ae	-0.19189712
44	0xbd80c45b	-0.06287452
45	0x3da54e2f	0.08071553
46	0x3c345d8c	0.011008631
47	0xbd8d822b	-0.06909593
48	0x3e16d5a3	0.14729933
49	0x3d800959	0.06251783
50	0xbd7f2057	-0.0622867
51	0x3dd09807	0.10185247
52	0xbd9740f0	-0.07385433
53	0xbb2ce56d	-0.0026381866
54	0x3c8dae3e	0.017295
55	0xbccaa5d4	-0.024737276
56	0x3dae607e	0.08514498
57	0xbd02e189	-0.03195337
58	0xba932849	-0.0011227216
59	0x3e3666e8	0.17812693
60	0x3da06c2e	0.07833134
61	0xbcbd8e53	-0.023139155
62	0x3e032ac6	0.12809286
63	0xbd0771fb	-0.033067685
64	0x3d6c5384	0.057696834
65	0x3d4088cd	0.047005463
66	0xbe83aa05	-0.25715652
67	0x3e0640a5	0.13110597
68	0x3d10a80a	0.035316505
69	0xbd7230b2	-0.05912847
70	0xb9fde985	-0.00048429906
71	0xbd7fa5fb	-0.06241415
72	0x3e5a931f	0.21345185
73	0xbdb88e9f	-0.09011578
74	0x3e03a728	0.12856734
75	0x3cb97fe2	0.022643987
76	0x3dff1da0	0.124568224
77	0xbe0a9505	-0.13533409
78	0x3d386bd2	0.0450247
79	0x3dc04979	0.09389014
80	0xbd7dc9f9	-0.061960194
81	0x3d876a88	0.06612116
82	0x3dc11227	0.094272904
83	0xbd495d04	-0.049160972
84	0xbe117969	-0.1420647
85	0x3de22272	0.11041726
86	0x3de817ef	0.1133269
87	0x3d51a561	0.05118311
88	0xbd9a82d8	-0.07544488
89	0x3daf262e	0.08552204
90	0x3e24fbfa	0.16111746
91	0xbd526f57	-0.051375713
92	0x3d0eb7e4	0.03484334
93	0x3dc78c86	0.097435996
94	0x3d9ce1a2	0.076602235
95	0xbd69ade7	-0.05705061
96	0x3e1fe999	0.15616454
97	0xbdc5ce9c	-0.09658548
98	0xbe211391	-0.1573012
99	0xbd3c4bba	-0.045970656
100	0x3d83439a	0.06409378
101	0xbe3e06ed	-0.1855733
102	0x3da70cca	0.08156736
103	0x3d6a5005	0.05720522
104	0xbd0feae0	-0.035136104
105	0xbb0383df	-0.0020067615
106	0xbd72c0e8	-0.059266
107	0xbe27da76	-0.1639193
108	0x3c20b157	0.009807906
109	0x3dac809f	0.0842297
110	0x3cf56c7d	0.029958958
111	0x3e1ddb20	0.15415621
112	0x3dc7fc0a	0.097648695
113	0x3d9ca938	0.076494634
114	0xbd7b4701	-0.06134701
115	0xbd52d562	-0.05147303
116	0x3d0825ba	0.033239104
117	0xbda47e0c	-0.08031854
118	0x3d59d5b6	0.053182326
119	0xbcefe7ae	-0.029285278
120	0xbe07625a	-0.13221112
121	0xbdf24371	-0.1182927
122	0xbc6795a0	-0.0141347945
123	0x3e6ab89c	0.22921985
124	0x3c22e67f	0.00994265
125	0xbd01a24f	-0.03164893
126	0xbdc7f0a1	-0.09762693
127	0x3be5258e	0.0069930023
128	0x3c92e9ac	0.017933689
129	0x3d9d5b72	0.076834574
130	0x3e5d0393	0.21583395
131	0xbe4ae123	-0.19812445
132	0x3e4aa4a4	0.19789368
133	0xbbbfccee	-0.005853287
134	0x3d582ce9	0.052777205
135	0x3d234efb	0.039870244
136	0xbe9b6278	-0.30348563
137	0xbdc6714b	-0.09689578
138	0xbd7bd04b	-0.06147794
139	0xb9debe1b	-0.0004248478
140	0x3df59731	0.11991728
141	0x3eb6e9c1	0.35725215
142	0xbdafca67	-0.08583527
143	0x3e1a1f70	0.15051055
144	0x3d815af5	0.06316177
145	0xbd884b64	-0.066550046
146	0xbe052cec	-0.13005418
147	0x3d88b606	0.06675343
148	0x3e2257d0	0.1585381
149	0xbd61cd4b	-0.055127423
150	0xbe5ea142	-0.21741202
151	0x399d435c	0.0002999556
152	0xbd8662f2	-0.06561841
153	0xbd8b6653	-0.06806626
154	0xbce8832f	-0.028382866
155	0x3dc8ce1d	0.09804938
156	0x3cc97e4a	0.024596352
157	0xbc037ad0	-0.008024886
158	0xbe2c94be	-0.16853616
159	0x3d08dc1b	0.033413034
160	0xbdbcd7d7	-0.09220856
161	0xbcfd523f	-0.030923007
162	0x3dbe14ef	0.092813365
163	0xbc80c31b	-0.015718034
164	0xbc462567	-0.012093878
165	0x3de54389	0.11194522
166	0xbde7e3bf	-0.11322736
167	0xbd24eb3e	-0.040263407
168	0xbd447b9c	-0.047969446
169	0x3d8e08ae	0.06935249
170	0x3d944a4d	0.07240734
171	0x3e7b0007	0.24511729
172	0x3d90122b	0.07034715
173	0x3d8ce513	0.0687963
174	0x3c34ff99	0.011047267
175	0xbc3869f5	-0.011255731
176	0x3d2b5e12	0.04183776
177	0xbded7bff	-0.11595916
178	0x3dd391c1	0.10330535
179	0x3e13c249	0.14429583
180	0x3dd87861	0.105698355
181	0x3d2cea0c	0.042215392
182	0x3c55062a	0.013001958
183	0xbcf6e0f0	-0.030136555
184	0xbd93dcc2	-0.072198406
185	0xbe080792	-0.13284138
186	0x3d4f9fee	0.05068963
187	0xbe281ef9	-0.16418065
188	0xbd5b3eda	-0.053526737
189	0xbd70415f	-0.058656093
190	0x3d978a2a	0.073993996
191	0x3d21819f	0.039430257
192	0xbde52781	-0.111891754
193	0x3c8a6a5e	0.016896423
194	0x3e534448	0.20631516
195	0xbcd18e5d	-0.02558058
196	0x3dbe3d28	0.092890084
197	0x3e89b6e3	0.26897344
198	0xbc63ba27	-0.013899363
199	0xbc8ccc68	-0.017187312
200	0xbe85de0b	-0.26145968
201	0x3e48851e	0.1958203
202	0x3c47dd6c	0.012198787
203	0xbe4e917c	-0.20172685
204	0xbd2c5e13	-0.042081904
205	0x3e108aea	0.14115492
206	0x3e3d3fe4	0.18481404
207	0x3d9398ed	0.07206903
208	0x3d537653	0.051626515
209	0xbe0b0b9d	-0.13578649
210	0x3c065155	0.008198102
211	0xbd8cfa6c	-0.06883702
212	0x3de18dad	0.11013351
213	0xbd6ffe6a	-0.058592238
214	0xbe15f717	-0.14645039
215	0xbdc19b6d	-0.09453473
216	0x3dc299f2	0.09502019
217	0x3e044321	0.12916233
218	0xbda25454	-0.079262406
219	0x3d943eec	0.07238564
220	0xbe298d64	-0.16557842
221	0xbd411313	-0.04713733
222	0xbd0e0796	-0.034675203
223	0x3e05ef3e	0.13079545
224	0x3c7e8d99	0.015536689
225	0x3ccd20e5	0.0250401
226	0x3e097c0b	0.13426225
227	0xbe3abd8d	-0.1823637
228	0x3ded59d8	0.11589402
229	0x3e1d2a31	0.15348126
230	0xbe0263cb	-0.1273338
231	0xbe0f7c65	-0.14012296
232	0x3b124552	0.002231915
233	0xbc84f5d2	-0.016230498
234	0xbe2e09b9	-0.16995896
235	0x3d60a408	0.054843932
236	0xbd992d4c	-0.07479343
237	0xbdeaae7d	-0.11459062
238	0x3dc974af	0.09836709
239	0xbe41db29	-0.18931259
240	0xbdab8d41	-0.083765514
241	0x3d9e974f	0.077437036
242	0xbe03d6ca	-0.12874904
243	0x3c037d66	0.008025503
244	0x3d5b6fe8	0.05357352
245	0x3e2161d0	0.15759969
246	0xbde1fbb3	-0.11034336
247	0xbd87a865	-0.066239156
248	0x3d9d72a8	0.076878846
249	0xbbc421a4	-0.0059854556
250	0xbdad2810	-0.08454907
251	0xbccfead3	-0.025380528
252	0xbdf6ad1f	-0.12044739
253	0x3d4e2b7a	0.05033443
254	0xbd845a67	-0.064625554
255	0xbe014274	-0.12623006

net.2.bias f4 [64]
0	0xbdc25589	-0.09488971
1	0x3d839211	0.06424344
2	0xbe2bafbb	-0.16766255
3	0xbd1536ca	-0.036429204
4	0xbcb6d316	-0.02231745
5	0xbb3a784e	-0.0028453055
6	0x3cd84289	0.026398914
7	0x3ceda363	0.029008573
8	0xbd9c898d	-0.07643423
9	0xbe44710a	-0.19183746
10	0x3d8d324d	0.0689436
11	0xbd7a47c3	-0.061103594
12	0xbe0a78ca	-0.1352264
13	0xbd6ee9be	-0.058328383
14	0xbdaa608e	-0.083191976
15	0x3c138cfd	0.009005782
16	0xbded43f0	-0.11585224
17	0xbd2420ee	-0.040070467
18	0xbbc5935c	-0.0060295295
19	0xbda8dd09	-0.08245284
20	0x3dd1991c	0.102342814
21	0xbd12b72a	-0.03581921
22	0xbd734a71	-0.059397165
23	0x3dda7f37	0.106687956
24	0x3b8fcb52	0.0043882513
25	0xbca85db2	-0.02055249
26	0xbc22f6c4	-0.009946529
27	0x3d997994	0.07493892
28	0x3ddab227	0.10678511
29	0xbdec24b2	-0.115304366
30	0xbc162e4f	-0.009166314
31	0xbd24c461	-0.040226344
32	0x3da18a64	0.07887724
33	0x3da4b690	0.080426335
34	0xbd49e1a7	-0.049287464
35	0x3e18cf68	0.14922869
36	0xbbec298a	-0.0072071003
37	0x3df1d3bf	0.118079655
38	0xbde5ffdf	-0.11230444
39	0x3da13520	0.07871461
40	0x3d7b2a41	0.061319593
41	0xbde0e3c4	-0.10980943
42	0x3df47d4a	0.119379595
43	0x3e14cfa4	0.14532334
44	0xbc84a2a5	-0.016190836
45	0x3cb50807	0.022098554
46	0xbe07ef48	-0.13274872
47	0xbdb9314b	-0.09042605
48	0x3de30e34	0.110866934
49	0xbd16b30a	-0.03679184
50	0xbe0489c8	-0.12943184
51	0xbd813920	-0.06309724
52	0xbd610ecf	-0.054945763
53	0xbd659bf4	-0.05605693
54	0x3debd963	0.115160726
55	0xbd0201b7	-0.031739917
56	0x3cbfdb9a	0.023420144
57	0x3e213e31	0.1574638
58	0xbceb8ebe	-0.028754588
59	0x3d6e0704	0.05811216
60	0xbc5364b1	-0.012902425
61	0xbcec0c8a	-0.028814573
62	0x3e0e8e6c	0.13921517
63	0xbd96cc4d	-0.07363186

net.4.weight f4 [64, 64]
0	0x3e5caa8f	0.21549438
1	0x3e63c417	0.22242771
2	0x3bc46606	0.0059936075
3	0xbea484a0	-0.32132435
4	0x3e2c9a86	0.16855821
5	0x3e2175b7	0.15767561
6	0xbd273f52	-0.04083187
7	0xbd0d7a1b	-0.034540277
8	0xbcc79dfe	-0.024367329
9	0x3e0e7f43	0.13915734
10	0xbe4cba85	-0.19993027
11	0x3dc874e8	0.09787923
12	0xbe70e1c8	-0.23523629
13	0xbe2e24c0	-0.17006207
14	0x3dacc1cb	0.084354006
15	0xbea1ddb0	-0.31614447
16	0xbdcf2dc0	-0.10116148
17	0x3e959689	0.29216412
18	0x3d7895bf	0.060689684
19	0xbe126a82	-0.14298442
20	0xbd8dacab	-0.069176994
21	0x3e1e2fda	0.15447941
22	0xbd9b7a92	-0.07591738
23	0x3d9800ef	0.07422053
24	0x3e8a44db	0.27005658
25	0xbc8c71aa	-0.017144043
26	0xbe8b4f76	-0.2720906
27	0xbb0d2db4	-0.0021542134
28	0xbdd01f3b	-0.10162207
29	0x3d468a94	0.048472002
30	0x3e8fad47	0.28061888
31	0xbea4c0e7	-0.32178423
32	0x3958a043	0.00020659067
33	0x3c9affc8	0.018920794
34	0x3b469c9c	0.0030305749
35	0x3dd4ebf5	0.10396568
36	0xbe340ba1	-0.17582561
37	0x3b5e3c80	0.0033910573
38	0x3e141a5b	0.14463179
39	0x3e6749f0	0.22586799
40	0x3b065b8f	0.002050135
41	0xbca4bc34	-0.020109273
42	0x3d8c56af	0.06852471
43	0xbdef78bd	-0.11692951
44	0xbd67c4b0	-0.05658406
45	0x3d5f0afc	0.054453835
46	0x3d99bf82	0.0750723
47	0x3cea4396	0.02859668
48	0xbc456481	-0.012047888
49	0x3df6289f	0.120194666
50	0xbd668b88	-0.05628541
51	0x3dbe03b3	0.09278049
52	0x3bf6b43a	0.007528809
53	0xbcf729c3	-0.03017128
54	0xbdbb91b6	-0.091586515
55	0xbd562a9f	-0.05228674
56	0xbcdd91ad	-0.027047003
57	0xbcbd3464	-0.02309627
58	0xbdcab218	-0.0989725
59	0x3e6d68c8	0.23184502
60	0x3e6540d9	0.22388019
61	0xbe073b64	-0.1320625
62	0xbda274c7	-0.0793243
63	0x3de296d5	0.11063925
64	0x3dbb463e	0.09144257
65	0x3d6b87b7	0.057502475
66	0xbd858844	-0.06520131
67	0xbdb60629	-0.08887894
68	0x3d8f8ee8	0.07009679
69	0x3d3d45c4	0.04620911
70	0xbda71c70	-0.08159721
71	0xbd85292d	-0.06501994
72	0xbe345d00	-0.17613602
73	0x3df33d4e	0.11876927
74	0xbe1c48ef	-0.15262197
75	0x3dd114fd	0.10209081
76	0xbd775ffb	-0.06039427
77	0x3dbf1728	0.093305886
78	0xbd02dd4c	-0.031949326
79	0xbe5a01f4	-0.21289808
80	0xbe30cba7	-0.17265187
81	0x3d9af86b	0.07566913
82	0xbddae466	-0.10688095
83	0xbe636c8c	-0.22209376
84	0xbdc71fb0	-0.09722841
85	0x3e184edc	0.14873832
86	0x3c180c5c	0.00928029
87	0x3e44f367	0.19233476
88	0x3de41005	0.11135868
89	0xbe0b74fd	-0.13618846
90	0xbc711003	-0.01471329
91	0x3e00f381	0.1259289
92	0xbbb558a6	-0.0055342494
93	0xbdbf95be	-0.09354733
94	0xbd833f8c	-0.06408605
95	0xbe254f60	-0.1614356
96	0xbe2a29a8	-0.16617453
97	0x3df17dfa	0.11791606
98	0x3e1b4d90	0.15166306
99	0x3d527ea6	0.051390313
100	0x3bce522c	0.0062964167
101	0xbd9ced1c	-0.076624125
102	0x3e24008c	0.16015834
103	0x3db94586	0.09046464
104	0x3da1800e	0.078857526
105	0xbe3609b3	-0.17777137
106	0x3dd81c6e	0.105522975
107	0xbd8cd6fa	-0.06876941
108	0xbd3b3079	-0.045700524
109	0xbe649b8d	-0.22324963
110	0xbc4b82d6	-0.01242133
111	0x3e59c893	0.21267919
112	0x3cf33b6e	0.029691424
113	0xbd65736b	-0.056018274
114	0x3e3f8a08	0.18704998
115	0x3da04b4a	0.0782686
116	0xba60cd62	-0.00085755263
117	0x3e3c4abe	0.18387887
118	0xbdc5a871	-0.09651268
119	0x3d67ec68	0.05662194
120	0xbce1ea29	-0.027577477
121	0xbd957fa9	-0.0729974
122	0xbccc7f24	-0.02496297
123	0x3e0c38a6	0.13693485
124	0x3d29c600	0.041448593
125	0x3e1f33b4	0.15547067
126	0xbdd09e67	-0.10186463
127	0x3e38850a	0.180195
128	0x3d322a59	0.043497417
129	0x3e11f7d0	0.14254689
130	0xbde031cf	-0.10947
131	0x3d899b69	0.06719095
132	0x3d6e8ead	0.058241535
133	0x3d74116c	0.059586927
134	0xbd55eed0	-0.052229702
135	0xbddee60a	-0.1088372
136	0xbe398224	-0.18116051
137	0xbc90da03	-0.017682081
138	0xbe16366e	-0.14669201
139	0xbd8e8b12	-0.06960119
140	0xbdb0b706	-0.08628659
141	0xbaf5e289	-0.0018759529
142	0x3cf6fcda	0.030149866
143	0xbe0331ff	-0.12812041
144	0x3d0be35e	0.03415238
145	0xbce1819f	-0.027527628
146	0xbce1b761	-0.027553262
147	0xbd03caec	-0.032175943
148	0x3d9a43aa	0.07532437
149	0x3d50d03b	0.050979834
150	0x3dcb0877	0.09913724
151	0x3ddd3655	0.10801379
152	0xbb95d9ef	-0.004573099
153	0xbd8d6a11	-0.06904996
154	0x3dc8beda	0.09802027
155	0xbd8294e4	-0.06376055
156	0xbdcdd499	-0.100503154
157	0xbe0aa041	-0.13537695
158	0x3ac8a35f	0.0015307477
159	0xba9d6658	-0.001200865
160	0xbd8a3dc4	-0.06750062
161	0xbd80103e	-0.06253098
162	0x3a107f2d	0.0005512115
163	0xbd1d5740	-0.038413286
164	0xbdc8de50	-0.09808028
165	0xbda264b8	-0.07929367
166	0xbda1e60e	-0.079052076
167	0xbc1d2027	-0.009590185
168	0xbcaef21e	-0.021355685
169	0x3d9e7724	0.07737568
170	0x3ca5fe30	0.020262808
171	0x3dfaf1a3	0.1225312
172	0xbc018a11	-0.007906453
173	0xbe2ac7f0	-0.16677833
174	0xbe34583f	-0.17611788
175	0xbdaa3955	-0.083117165
176	0x3e26a77e	0.1627483
177	0xbda44369	-0.0802067
178	0x3d586dc3	0.052839052
179	0xbdd7073a	-0.10499425
180	0x3dc8a333	0.09796753
181	0x3e0c9f9a	0.13732758
182	0x3dd3470c	0.103162855
183	0xbe05243d	-0.13002105
184	0xb8dfb472	-0.00010667079
185	0x3d32b9fd	0.043634403
186	0xbe0525f8	-0.13002765
187	0xbd584df8	-0.05280873
188	0x3e220c7a	0.15825072
189	0xbd8d419e	-0.06897281
190	0x3dc5a5fb	0.09650799
191	0x3e1ba5a4	0.15199906
192	0x3caa23af	0.020768968
193	0xbd583dde	-0.052793376
194	0xbd9a667c	-0.075390786
195	0x3c984802	0.018589024
196	0x3da5065b	0.08057853
197	0xbde68fd7	-0.11257904
198	0x3cc7f95b	0.024410894
199	0xbde9bdab	-0.114131294
200	0xbcc7d246	-0.024392258
201	0xbe00d6db	-0.12581961
202	0xbc5f1c82	-0.013617637
203	0xbdb3df98	-0.087828815
204	0x3c2d541b	0.010579134
205	0x3b47fd2a	0.0030515888
206	0x3dddb9d4	0.108264595
207	0x3d86e172	0.06585969
208	0x3e0642a4	0.13111359
209	0xbdf5a74c	-0.119948
210	0x3d7f8721	0.06238473
211	0x3c96b5cc	0.018397234
212	0xbdd528b5	-0.10408155
213	0xbdbcf7fc	-0.09226987
214	0xbdb7e2be	-0.089787945
215	0xbc6a8ecf	-0.014316275
216	0x3d7b427e	0.06134271
217	0x3dc7ab37	0.097494535
218	0x3cf70820	0.030155241
219	0xbdd49eb7	-0.10381835
220	0x3e165940	0.14682484
221	0xbde7949d	-0.113076426
222	0x3d9b2128	0.075746834
223	0xbdc499d8	-0.09599656
224	0x3da42aa0	0.080159426
225	0xbcc51755	-0.024058977
226	0x3dc92a81	0.0982256
227	0xbd1ed855	-0.03878053
228	0xbc48b367	-0.012249804
229	0x3d035eb6	0.032072745
230	0xbe31e741	-0.17373373
231	0x3ca6a56d	0.020342553
232	0x3cf86188	0.030319944
233	0x3e10001e	0.14062545
234	0xbd0ac6c2	-0.033880956
235	0x3de0dd58	0.10979718
236	0x3d3848f3	0.044991445
237	0xbcb3ca86	-0.021947157
238	0x3d17f4e7	0.03709879
239	0xbe0f0b5e	-0.1396918
240	0x3d6d8e21	0.057996873
241	0xbbb5620b	-0.0055353693
242	0xbdf1dd78	-0.1180982
243	0xbdf4e4d3	-0.11957707
244	0xbda6760f	-0.08127987
245	0xbc9a227e	-0.018815275
246	0x3e0bdef5	0.1365927
247	0xbdaa6f09	-0.083219595
248	0xbd89eda7	-0.06734782
249	0x3d859823	0.065231584
250	0xbd9afe9f	-0.07568096
251	0x3d868717	0.06568735
252	0xbdb1e08a	-0.086854056
253	0x3e0fc460	0.14039755
254	0xbd3f0238	-0.046632975
255	0xbd73020d	-0.059328128

net.4.bias f4 [64]
0	0xbd6f0b18	-0.05836019
1	0x3ca777b8	0.020442829
2	0x3e03aeaf	0.12859605
3	0xbda0b8be	-0.07847737
4	0x3dda0d99	0.10647125
5	0x3db70ae6	0.089376256
6	0xbe26e1ab	-0.16297023
7	0x3dcf3029	0.10116608
8	0x3d9e3af7	0.077260904
9	0xbd2de6be	-0.04245638
10	0x3e257c16	0.16160616
11	0xbc601c05	-0.013678555
12	0xbdef5365	-0.11685828
13	0xbcf58242	-0.029969338
14	0x3c29e684	0.010369901
15	0xbde51463	-0.11185529
16	0xbcd26324	-0.02568204
17	0xbd83bab6	-0.06432097
18	0x3e2009c3	0.15628724
19	0xbe204008	-0.15649426
20	0x3e07caf7	0.13261019
21	0xbcdb53d7	-0.026773376
22	0xbe197f70	-0.1499002
23	0x3d26ae0e	0.040693335
24	0x3d87b1c7	0.06625705
25	0x3dc9f0e7	0.098604016
26	0x3cf7e8fd	0.030262465
27	0xbb6a5fa0	-0.0035762563
28	0x3df0ae2a	0.11751969
29	0xbddb30de	-0.1070268
30	0xbdd4344c	-0.10361537
31	0x3d8bdca5	0.06829194
32	0x3ca64951	0.020298632
33	0x3de8a7dc	0.11360142
34	0xbcc7110b	-0.024300119
35	0xbdfa7abd	-0.12230442
36	0x3e01b27f	0.12665747
37	0xbaec595d	-0.0018032003
38	0x3deb21c1	0.114810474
39	0xbd9fdd65	-0.078058995
40	0x3ce1baae	0.027554836
41	0x3d5e1371	0.05421776
42	0x3c3036be	0.010755239
43	0xbdb1567c	-0.08659074
44	0x3d7c0be6	0.061534785
45	0xbdf9ee58	-0.122036636
46	0x3ca7fcd1	0.020506294
47	0xbe15c1e8	-0.1462475
48	0x3da1b728	0.078962624
49	0x3d746484	0.05966617
50	0xbd8209c0	-0.06349516
51	0xbd0db84b	-0.034599584
52	0x3e1c837b	0.15284531
53	0xbd9fb328	-0.07797843
54	0x3d8715d9	0.06595964
55	0xbe0bf15d	-0.13666292
56	0xbe1a8e58	-0.15093362
57	0xbd901ac7	-0.070363574
58	0x3e1ef728	0.1552397
59	0x3d136ff0	0.035995424
60	0xbe19d175	-0.15021308
61	0xbe012302	-0.1261101
62	0xbdd4abe2	-0.103843465
63	0x3dd18d7a	0.10232063

net.6.weight f4 [1, 64]
0	0x3e4df6f6	0.2011374
1	0x3e34190f	0.17587684
2	0x3dc82d1c	0.09774229
3	0x3d1ca5f9	0.03824422
4	0xbde9e317	-0.11420267
5	0xbd011b69	-0.03152028
6	0xbd965032	-0.07339515
7	0x3d6b8f71	0.057509843
8	0xbc12c7ee	-0.0089588
9	0xbd89b4b6	-0.06723921
10	0x3d5c1a71	0.053736154
11	0x3e11ffeb	0.14257781
12	0xbd5eda99	-0.05440769
13	0x3e44ccce	0.19218752
14	0x3e2b25de	0.16713664
15	0xbe10b960	-0.14133215
16	0xbd57214e	-0.052521996
17	0xbd2547ac	-0.040351555
18	0x3d82db8f	0.06389534
19	0xbc6791c8	-0.014133878
20	0x3df2f8cb	0.1186386
21	0xbe09e80e	-0.13467428
22	0xbd273d83	-0.040830147
23	0x3d5bec60	0.05369222
24	0x3a7cb426	0.00096398813
25	0xbdf02768	-0.11726266
26	0xbdfd82a2	-0.12378432
27	0xbdba76bc	-0.09104678
28	0x3cc1fcf7	0.023680193
29	0xbdd271c6	-0.10275607
30	0xbe1013d7	-0.14070068
31	0xbccec572	-0.025240634
32	0xbdca24bf	-0.0987029
33	0x3d4dbfdb	0.050231796
34	0xbb41b061	-0.0029554593
35	0xbe0ca3d6	-0.13734373
36	0x3e15884e	0.14602777
37	0x3e3e5624	0.18587548
38	0x3cf501a0	0.029908001
39	0xbd8676ef	-0.065656535
40	0xbd0401be	-0.032228224
41	0x3ba8db36	0.005153085
42	0xbdbf531e	-0.09342025
43	0xbddaa712	-0.106763974
44	0xbd9cf1ec	-0.076633304
45	0xbd9cacde	-0.07650159
46	0xbcfbd43c	-0.03074085
47	0xbd3a6ddf	-0.045514937
48	0xbd5fa891	-0.054604117
49	0xbdcdf900	-0.100572586
50	0x3e0b4f38	0.13604438
51	0x3d0a7456	0.033802353
52	0x3d059c2b	0.032619637
53	0x3d6a8301	0.05725384
54	0xbdc1e05c	-0.09466621
55	0xbb52ca3b	-0.0032163996
56	0xbdc5c476	-0.096566126
57	0x3df5aa1f	0.11995339
58	0x3cef6645	0.02922357
59	0x3df9bad3	0.12193837
60	0xbd975854	-0.07389894
61	0xbccac866	-0.02475376
62	0xbc1e8004	-0.009674076
63	0xbdda6d49	-0.10665376
