abc_bcs/v_t0.pth (torch, 37923 bytes, 7 tensors)

net.0.weight f4 [64, 3]
0	0xbd4064e8	-0.04697123
1	0xbec241df	-0.3794088
2	0xbcb534d0	-0.02211991
3	0x3ec6ce59	0.38829306
4	0x3dd7cf4d	0.10537586
5	0x3eaa9f70	0.33324766
6	0x3f348c9f	0.7052707
7	0xbebdd960	-0.37079906
8	0x3e9f60cf	0.31128547
9	0xbddc3530	-0.10752332
10	0x3e26bb40	0.16282368
11	0x3e825957	0.25458786
12	0x3f443d75	0.76656276
13	0xbd91157a	-0.070841745
14	0xbe39d203	-0.1814652
15	0x3c88f849	0.016719954
16	0xbb27d017	-0.002560621
17	0xbe9d11b2	-0.30677563
18	0x3ed866c7	0.42265913
19	0x3d936f64	0.071989805
20	0x3dac9947	0.08427673
21	0x3ef9c2ba	0.48781377
22	0x3f0a8942	0.5411569
23	0x3ee4d062	0.44690233
24	0x3ee62b72	0.4495502
25	0xbdf09ab6	-0.11748259
26	0x3ea3ddad	0.32005063
27	0xbe7afe8f	-0.24511169
28	0xbe174b83	-0.14774899
29	0xbeadacff	-0.33921048
30	0xbe1e5da1	-0.15465404
31	0xbef3e6e1	-0.47637084
32	0xbdd71c6c	-0.10503468
33	0x3ea3d376	0.3199727
34	0x3d337cc1	0.043820146
35	0xbd4baaa5	-0.049723286
36	0xbe8b5955	-0.27216592
37	0xbdb2b41d	-0.0872576
38	0xbecac490	-0.3960309
39	0x3e788d28	0.24272597
40	0xbcec01fd	-0.028809542
41	0xbee5e996	-0.44904774
42	0x3eceaffc	0.4036864
43	0x3f057dbd	0.52144986
44	0xbec088ac	-0.37604272
45	0xbf0928b3	-0.5357773
46	0xbe63d3f0	-0.22248816
47	0xbc2ab320	-0.010418683
48	0xbeca7adf	-0.39546868
49	0x3d49fca0	0.049313188
50	0xbe861686	-0.2618906
51	0x3ec73600	0.38908386
52	0xbeb5f07d	-0.3553504
53	0x3dda363e	0.10654877
54	0x3f1e37a4	0.6180365
55	0xbe4250ff	-0.1897621
56	0xbead4694	-0.3384291
57	0x3ea807ee	0.3281855
58	0xbeaa6e50	-0.33287287
59	0xbee958cc	-0.4557556
60	0x3f0758b4	0.52869725
61	0xbee989a5	-0.45612827
62	0xbd78eeab	-0.060774487
63	0x3e0cd9fa	0.13755026
64	0xbe6c21fc	-0.23059839
65	0x3e858c4b	0.26083598
66	0x3f3ff64c	0.74985194
67	0x3e9e3f82	0.30907828
68	0xbe6ea440	-0.23304844
69	0xbf327bb7	-0.69720024
70	0xbe0a1dac	-0.13487881
71	0x3ef3bd01	0.47605136
72	0xbdca694d	-0.09883366
73	0x3dca038d	0.098639585
74	0xbec7d647	-0.39030668
75	0xbe3dd350	-0.1853764
76	0x3f01bc26	0.50677717
77	0x3eadd5f2	0.3395229
78	0x3eba5c11	0.36398366
79	0xbe014c7a	-0.1262683
80	0x3e45567b	0.19271271
81	0xbefd489b	-0.49469456
82	0xbee0a2b1	-0.43874124
83	0x3f09eaf5	0.5387414
84	0xbf144b57	-0.5792746
85	0x3e97cbe9	0.2964776
86	0x3f0f0144	0.55861306
87	0xbef2846a	-0.4736665
88	0xbd384e92	-0.044996805
89	0x3e7e1e91	0.24816348
90	0xbf0ac260	-0.5420284
91	0xbeea7cea	-0.45798427
92	0x3ead9aa4	0.33907044
93	0x3ea5dcb1	0.32394937
94	0x3efedb0b	0.49776492
95	0xbd6c0701	-0.057623867
96	0xbf12d551	-0.57356745
97	0x3ecfed54	0.40610754
98	0xbc828d5e	-0.01593655
99	0xbe2f9a65	-0.1714874
100	0xbf00cd14	-0.50312924
101	0xbe4df6c4	-0.20113665
102	0x3ddec571	0.10877503
103	0xbee0a2dd	-0.43874255
104	0x3e71db2c	0.23618764
105	0x3ecacc65	0.39609066
106	0x3e8d60c6	0.27612895
107	0xbdc864f5	-0.09784881
108	0x3e802d97	0.25034782
109	0x3e688176	0.22705635
110	0x3ea3b161	0.31971267
111	0x3f0d1f22	0.5512563
112	0xbe80c621	-0.2515116
113	0xbd1931ce	-0.037401013
114	0xbf3c6998	-0.73598623
115	0x3e8a1f7c	0.26977146
116	0xbe1ab52b	-0.15108173
117	0x3e8cb830	0.27484274
118	0x3e140305	0.14454277
119	0x3e38bc77	0.18040644
120	0x3dc53804	0.09629825
121	0x3f1a1b5c	0.60198
122	0xbee0604b	-0.43823466
123	0x3e6d6513	0.23183088
124	0xbe9ade30	-0.3024764
125	0x3f123638	0.5711398
126	0x3f3cc34a	0.7373549
127	0x3e272431	0.163224
128	0xbe365d6b	-0.17809074
129	0x3f495728	0.78648615
130	0x3ed524d3	0.41629657
131	0xbe203a4f	-0.15647243
132	0xbf1bfd8f	-0.60933775
133	0xbe8ff6d8	-0.28118014
134	0x3dea0eef	0.114286296
135	0xbf0b68ac	-0.5445659
136	0xbd628132	-0.05529899
137	0x3ec81494	0.390782
138	0xbea995ae	-0.3312201
139	0x3e0d5d1e	0.13805053
140	0x3e8bd13d	0.27308074
141	0xbf3ded40	-0.7419014
142	0x3d4602a2	0.048342355
143	0x3e81d4fd	0.2535781
144	0x3c6fffa8	0.014648356
145	0xbe89a819	-0.2688606
146	0x3d9bbbcd	0.076041795
147	0x3f37a391	0.7173396
148	0x3e09e178	0.13464916
149	0x3de236d4	0.11045614
150	0xbef1fdde	-0.47263998
151	0x3e5b4419	0.21412696
152	0xbeb8e541	-0.36112407
153	0xbeff19b1	-0.49824288
154	0xbe9c37d7	-0.30511352
155	0xbd52ddaa	-0.051480927
156	0xbf1cdb1d	-0.6127184
157	0x3f03ab72	0.5143348
158	0x3e545cb6	0.20738491
159	0xbe84226d	-0.25807515
160	0x3e6551c8	0.22394478
161	0x3e94f994	0.29096663
162	0x3e36efb8	0.17864883
163	0x3b7290ae	0.0037012505
164	0xbc9ffcec	-0.019529782
165	0x3e8b6c66	0.2723114
166	0x3d8b3ec1	0.06799079
167	0xbd5d8a2a	-0.05408684
168	0xbcfd26ca	-0.030902285
169	0xbef16cb5	-0.4715325
170	0xbd6c65ec	-0.057714388
171	0x3e087324	0.13325173
172	0x3ec63791	0.3871427
173	0xbdd435de	-0.10361837
174	0x3ed7bd4e	0.42136616
175	0xbe6ae2dd	-0.22938104
176	0xbea7513b	-0.3267916
177	0x3f05e426	0.5230125
178	0x3e89d33b	0.2691897
179	0x3eaa2345	0.33230034
180	0xbea68332	-0.3252197
181	0xbcb5c98b	-0.02219083
182	0xbf0a0bf1	-0.5392447
183	0x3eb325ad	0.34989682
184	0xbda6ad1d	-0.081384875
185	0xbe2d48d9	-0.1692232
186	0xbf113e04	-0.56735253
187	0xbe70cd5c	-0.23515838
188	0xbebca8fd	-0.36847678
189	0xbd724def	-0.059156355
190	0x3f04c505	0.5186313
191	0xbe141a1d	-0.14463086

net.0.bias f4 [64]
0	0x3eef8f90	0.46789217
1	0xbea2a8c4	-0.31769383
2	0xbe02cfa0	-0.12774515
3	0xbf141d41	-0.5785714
4	0x3d227837	0.039665427
5	0xbd8a924a	-0.06766184
6	0x3e58aa50	0.21158719
7	0x3e83a406	0.25711077
8	0xbebc9b8c	-0.36837423
9	0xbf0b8e60	-0.5451412
10	0x3e1599bc	0.14609426
11	0x3f041367	0.51592106
12	0x3f0bdd36	0.54634416
13	0x3eecc7f4	0.46246302
14	0x3eea220d	0.45729104
15	0x3efbe675	0.49199262
16	0x3ea5a7d6	0.3235461
17	0xbf0972a7	-0.5369057
18	0x3d498fe8	0.049209505
19	0xbbfadd45	-0.007655772
20	0x3e518619	0.2046131
21	0xbece2c81	-0.4026833
22	0xbee4aa89	-0.44661358
23	0x3ec9744f	0.3934655
24	0xbef87454	-0.4852625
25	0x3e0af382	0.13569453
26	0xbe7c3cb6	-0.24632534
27	0xbeb6452d	-0.35599652
28	0xbefc79cb	-0.4931167
29	0xbe47b7d1	-0.19503714
30	0xbf179052	-0.5920459
31	0xbefcce6e	-0.49376243
32	0x3d45b307	0.048266437
33	0xbe4f1dfa	-0.20226279
34	0x3e4c9288	0.19977772
35	0xbe75705e	-0.23968646
36	0xbecef8ca	-0.40424186
37	0xbe57d605	-0.21077736
38	0x3c2b796a	0.010465959
39	0x3e4f8940	0.202672
40	0x3eb76aa6	0.35823554
41	0xbd1bcce8	-0.03803721
42	0xbdbd243a	-0.09235425
43	0xbe8517dc	-0.25994766
44	0x3edc1ca2	0.42990595
45	0x3f0fe6c9	0.56211525
46	0x3ec6b410	0.38809252
47	0xbe426d8b	-0.189871
48	0xbe88ce44	-0.26719868
49	0xbd3be656	-0.045873962
50	0xbf0a8905	-0.54115325
51	0xbe3d8edc	-0.18511528
52	0xbf079398	-0.52959585
53	0xbe760ea4	-0.24029022
54	0xbf012639	-0.5044895
55	0xbee4bcd2	-0.44675308
56	0xbefe69b9	-0.49690035
57	0xbe849445	-0.2589437
58	0xbea8e7fb	-0.32989487
59	0xbf0a157f	-0.5393905
60	0x3e8d91cc	0.27650297
61	0x3e9259a6	0.2858402
62	0x3c9ced96	0.019156259
63	0x3dd7005f	0.10498118

net.2.weight f4 [64, 64]
0	0xbc674054	-0.014114458
1	0xbd392d55	-0.045209248
2	0x3e0ae8d3	0.13565378
3	0x3c1f1c1e	0.0097112935
4	0x3d2ab4e6	0.041676424
5	0xbda6a54f	-0.08136999
6	0xbdc85530	-0.09781873
7	0x3db00ef2	0.085966006
8	0x3dd7c7b0	0.10536134
9	0x3d53c5d9	0.051702354
10	0xbdaa012c	-0.08301005
11	0x3d4ed1c5	0.05049302
12	0x3d3d3234	0.046190456
13	0xbdebad5a	-0.115076736
14	0xbcd3885b	-0.025821855
15	0xbdb382d2	-0.08765186
16	0xbcb85003	-0.02249909
17	0x3d9046ad	0.0704473
18	0xbd9a4e7f	-0.07534503
19	0xbcda4ce9	-0.026648002
20	0x3d163f86	0.036681674
21	0x3df650af	0.12027108
22	0x3d544e9d	0.051832784
23	0x3d9a98e4	0.07548693
24	0xbd4f749a	-0.05064831
25	0xbd5488c8	-0.051888257
26	0x3db633eb	0.08896621
27	0xbc894464	-0.016756244
28	0xbda7f1f3	-0.08200445
29	0x3da64a91	0.08119691
30	0x3dc8db1b	0.09807416
31	0xbd272fa9	-0.040816937
32	0xbcb957eb	-0.02262493
33	0x3dc041cb	0.09387549
34	0x3dac256c	0.08405575
35	0x3bfb8d63	0.0076767667
36	0x3e03f8ef	0.1288793
37	0x3b72f678	0.0037073176
38	0xbdc98ef4	-0.09841719
39	0xbdc4947b	-0.09598633
40	0xbdb7d474	-0.08976069
41	0xbd663914	-0.056206778
42	0x3debf7a4	0.11521843
43	0xbd2003fc	-0.0390663
44	0xbe206802	-0.15664676
45	0xbe00b520	-0.12569094
46	0x3d2444ee	0.0401048
47	0xbc845ff7	-0.01615904
48	0xbd060bf3	-0.03272624
49	0xbd863479	-0.06552977
50	0x3cacbdf6	0.021086674
51	0x3be3f224	0.0069563556
52	0x3dc9be3f	0.0985074
53	0x3d365068	0.044510275
54	0xbd69455c	-0.056950912
55	0x3e03819f	0.12842415
56	0x3dab8e4c	0.0837675
57	0xbd493324	-0.049121037
58	0xbdbf29e9	-0.093341656
59	0x3dcd6000	0.10028076
60	0x3dc176f6	0.09446518
61	0x3d9974ac	0.074929565
62	0xbc32835b	-0.010895575
63	0x3d8c29f2	0.06843938
64	0x3bb8c1c3	0.0056383326
65	0xbe1b586c	-0.15170449
66	0x3d1d7840	0.038444757
67	0xbce48651	-0.027896078
68	0xbc2f3051	-0.010692672
69	0x3dca9e8e	0.09893523
70	0x3d8a65c5	0.06757692
71	0xbdfa719f	-0.12228703
72	0xbddceae0	-0.10786986
73	0x3d0f8633	0.03504009
74	0xbb7e4f52	-0.0038804603
75	0xbdf0fe24	-0.117672235
76	0x3c48d7c1	0.012258471
77	0x3dda530c	0.10660371
78	0xbd412f9c	-0.047164544
79	0x3e214ba2	0.15751508
80	0x3e1c1fd3	0.15246515
81	0xbddbe074	-0.107361704
82	0xbdee0632	-0.116222754
83	0x3d8479c3	0.06468537
84	0xbcc059de	-0.023480352
85	0xbd2f53c9	-0.042804513
86	0xbe0a2f45	-0.13494594
87	0x3e1d2081	0.1534443
88	0x3da81161	0.0820644
89	0xbdd1551c	-0.102213115
90	0xbde333d4	-0.1109387
91	0xbc84109f	-0.016121207
92	0x3de23b71	0.11046494
93	0x3c51e804	0.0128116645
94	0xbcaa3c5b	-0.020780733
95	0x3c641ff0	0.01392363
96	0x3e38c278	0.18042934
97	0xbddaebf2	-0.10689534
98	0xbdc950a2	-0.098298326
99	0xbdb7e18f	-0.08978569
100	0xbe23b998	-0.15988767
101	0xbc210f25	-0.009830271
102	0x3db57f67	0.08862191
103	0x3dac10a3	0.08401611
104	0xbd446ac4	-0.047953382
105	0x3df82352	0.12116112
106	0xbdfff1d8	-0.124973
107	0x3b4fac46	0.0031688376
108	0x3d25aa87	0.04044583
109	0x3dadc5d2	0.08484997
110	0x3d87dd77	0.06634038
111	0x3d2f7c93	0.042843413
112	0xbda7b347	-0.08188491
113	0xbd673388	-0.05644563
114	0x3dd06370	0.10175216
115	0xbd9a88e5	-0.07545642
116	0x3e0750a8	0.13214362
117	0x3df266a1	0.11835981
118	0x3d55e480	0.052219868
119	0xbc12ee1f	-0.008967905
120	0xbdfcea2f	-0.123493545
121	0xbd1ca217	-0.03824052
122	0x3d705a3f	0.058679815
123	0xbe59a195	-0.21253045
124	0xbd9b7b12	-0.07591833
125	0xbdc7e1ee	-0.097598895
126	0x3d3c33ec	0.045947954
127	0xbc71cee7	-0.014758802
128	0xbd2bfcc0	-0.041989088
129	0x3e5f5120	0.2180829
130	0x3e4fd554	0.20296222
131	0x3d47abed	0.048747946
132	0x3e5d184d	0.21591301
133	0xbd92ba1e	-0.07164405
134	0x3d9e7ee3	0.077390455
135	0x3ddda01c	0.10821554
136	0x3e6aa6f9	0.22915258
137	0xbd51f047	-0.051254537
138	0x3c65667b	0.014001484
139	0xba189dfe	-0.00058218825
140	0xbe24048b	-0.16017358
141	0x3d99fa8c	0.07518491
142	0x3c982ab4	0.01857505
143	0xbde8d369	-0.11368448
144	0xbe7ea3e7	-0.24867211
145	0x3e4ac10d	0.19800206
146	0x3e340b61	0.17582466
147	0x3dff306e	0.12460409
148	0x3e10d2a6	0.14142856
149	0x3d9a78ec	0.07542595
150	0x3eaef71a	0.341729
151	0xbe80f04a	-0.25183326
152	0xbddd9cee	-0.108209476
153	0xbc95f67a	-0.018306006
154	0x3ee68148	0.4502051
155	0xbcc34fba	-0.023841728
156	0xbe62d870	-0.22152877
157	0x3aaf52b7	0.0013376091
158	0xbc533908	-0.012892015
159	0x3e26a0a2	0.16272214
160	0xbe8d8113	-0.27637538
161	0x3dc92be5	0.09822825
162	0xbd0422e9	-0.032259855
163	0x3e79974f	0.24374126
164	0x3e5ce6eb	0.21572463
165	0x3e426439	0.18983544
166	0xbe523ae3	-0.20530276
167	0x3dfc7527	0.123270325
168	0xbdb52777	-0.08845418
169	0x3e30c2c2	0.17261794
170	0x3e865b62	0.26241595
171	0x3e53e67d	0.20693393
172	0xbe668903	-0.22513203
173	0xbe47d222	-0.19513753
174	0xbe3a26a7	-0.18178807
175	0xbe630492	-0.22169712
176	0x3d915d24	0.07097843
177	0x3e13e0cc	0.14441222
178	0x3d9dfffc	0.07714841
179	0xbd4301c8	-0.04760912
180	0xbe03ae31	-0.12859417
181	0xbe4d2b24	-0.20035988
182	0x3dd0393f	0.10167169
183	0x3e080890	0.13284516
184	0x3dd28115	0.10278527
185	0x3e6aa19a	0.22913209
186	0x3e5b62e1	0.21424438
187	0x3e16c151	0.14722182
188	0xbe634fb7	-0.22198378
189	0x3e17b46c	0.14814919
190	0xbb931f84	-0.004489841
191	0x3d927932	0.071520224
192	0x3d6fc7ba	0.058540083
193	0xbba39e47	-0.0049932334
194	0x3c2a102d	0.010379833
195	0xbcc449ce	-0.023960974
196	0x3d81f5fb	0.06345745
197	0x3caa4897	0.020786567
198	0xbd87fa5f	-0.06639551
199	0xbaaebdd2	-0.0013331717
200	0x3c7c7e06	0.015410906
201	0xbccc7d62	-0.024962131
202	0xbce23e52	-0.027617607
203	0xbd401250	-0.046892464
204	0x3c636fcd	0.013881636
205	0x3cb091bd	0.021553868
206	0x3d0835ac	0.03325431
207	0x3cb94aec	0.022618733
208	0x3c9ecc8b	0.019384643
209	0xbdf7535e	-0.12076448
210	0xbde552f4	-0.11197463
211	0xbd904465	-0.07044295
212	0xbdc545e2	-0.0963247
213	0x3d9c8b25	0.07643727
214	0x3bd9db7e	0.00664848
215	0x3d68b52b	0.0568134
216	0xbc00fa58	-0.007872187
217	0x3df1133c	0.11771247
218	0xbe5bb55a	-0.21455899
219	0xbd4d0ad8	-0.05005917
220	0xbd6de330	-0.05807799
221	0xbcccbd00	-0.024992466
222	0x3dad4d9f	0.08462071
223	0x3d7dce8d	0.06196456
224	0x3cdf0e28	0.02722843
225	0x3d06145f	0.03273427
226	0x3db9d66a	0.09074099
227	0x3b15a299	0.0022832511
228	0xbdd6782e	-0.10472141
229	0x3d7b9b52	0.061427422
230	0x3d8dcfd2	0.06924404
231	0xbddf45ea	-0.10902007
232	0xbd085c68	-0.03329125
233	0x3cbf6623	0.023364132
234	0xbd920603	-0.07130053
235	0xbd5c47b7	-0.05377933
236	0xbd690ec4	-0.056898847
237	0x3daec931	0.08534468
238	0xbdbc13f4	-0.09183493
239	0xbd242286	-0.040071987
240	0xbd974540	-0.07386255
241	0x3cdaceea	0.026709992
242	0xbbb4218e	-0.005497164
243	0x3d0e433b	0.034732085
244	0x3dac4522	0.084116235
245	0xbd8ebb28	-0.06969291
246	0x3dc69335	0.09696046
247	0x3db8222c	0.08990893
248	0x3d8e23b2	0.06940402
249	0xbd892923	-0.06697299
250	0xbe07f2b2	-0.13276175
251	0xbdb00e35	-0.0859646
252	0xbd045e24	-0.032316342
253	0xbd6425bb	-0.055700045
254	0x3d481885	0.04885151
255	0x3be51c3f	0.0069918926

net.2.bias f4 [64]
0	0xbd70e675	-0.05881353
1	0x3dc6fd8a	0.097163275
2	0xbceb9753	-0.02875868
3	0x3daa959f	0.08329319
4	0x3c918beb	0.017766913
5	0x3bf55cb7	0.007487859
6	0xbd9eb26c	-0.07748875
7	0x3d9877cc	0.074447244
8	0x3d04c2f3	0.03241248
9	0xbd993894	-0.074814945
10	0xbdb9e8ba	-0.09077592
11	0x3d319761	0.043357257
12	0x3cea5beb	0.028608283
13	0x3c758cfe	0.014987228
14	0xbd546006	-0.051849388
15	0xbda31a1d	-0.07963965
16	0xbd2d00fe	-0.042237274
17	0x3cc012bf	0.023446439
18	0x3d41ef49	0.04734734
19	0x3d1a1d39	0.037625525
20	0x3db7031d	0.08936141
21	0x3d0f1444	0.034931436
22	0xbc80f5ab	-0.015742144
23	0xbc9015b0	-0.017588466
24	0x3cdee910	0.027210742
25	0xbd71568a	-0.05892042
26	0x3de32208	0.11090475
27	0xbe1b85aa	-0.15187708
28	0xbd296b6e	-0.04136222
29	0x3a3a53ac	0.0007107805
30	0x3dbf4892	0.093400136
31	0xbd59370f	-0.053031024
32	0xbd87a710	-0.066236615
33	0x3cb61977	0.02222894
34	0xbcd7be10	-0.026335746
35	0xbdacd9ff	-0.08440017
36	0x3cc98943	0.024601584
37	0xbcf65429	-0.030069428
38	0x3dbff315	0.09372536
39	0xbd449c31	-0.04800052
40	0x3d22516b	0.039628427
41	0xbd197526	-0.037465237
42	0xbc00c8a5	-0.007860337
43	0xbd4839fa	-0.048883416
44	0x3d88b1ea	0.066745594
45	0x3df199c6	0.11796908
46	0xbe0d0a78	-0.13773525
47	0x3d094011	0.033508364
48	0xbca50b60	-0.020147026
49	0x3cb0fb1d	0.021604115
50	0xbc401a62	-0.01172504
51	0x3c3a318d	0.011364353
52	0x3df1d105	0.118074454
53	0xbc6469a9	-0.013941207
54	0x3dcc8e61	0.09988094
55	0xbdb14da8	-0.0865739
56	0x3da790e9	0.08181936
57	0xbbc600a3	-0.0060425564
58	0xbde30648	-0.110851824
59	0x3dd4e05b	0.10394355
60	0x3dd84507	0.10560041
61	0x3df84d28	0.121240914
62	0x3c80ebed	0.015737498
63	0xbd88198e	-0.06645499

net.4.weight f4 [64, 64]
0	0x3da67f92	0.08129801
1	0xbc412132	-0.0117877
2	0x3d42cbbd	0.04755758
3	0x3d8520a6	0.06500368
4	0x3e0aebae	0.13566467
5	0x3cefb49f	0.029260932
6	0x3dd972bf	0.10617589
7	0xbda78789	-0.08180148
8	0x3de48285	0.11157707
9	0xbd185fbd	-0.03720068
10	0xbdc6a910	-0.09700215
11	0x3dd3ee15	0.10348145
12	0x3d655c21	0.055996064
13	0xbdb101b2	-0.086429015
14	0x3cf464ae	0.029833164
15	0x3d957bfe	0.0729904
16	0xbc1382db	-0.009003366
17	0x3d830357	0.063971214
18	0xbd2ab68b	-0.041677993
19	0x3d242f17	0.04008397
20	0xbd9f4d7a	-0.07778449
21	0x3cffee94	0.031241693
22	0x3d97f379	0.074194856
23	0x3e29bd3c	0.16576093
24	0xbd83c731	-0.06434477
25	0xbd8009d1	-0.06251872
26	0x3c55d341	0.013050855
27	0x3e048aae	0.12943527
28	0xbd45aab5	-0.048258502
29	0x3e024941	0.12723257
30	0x3d63d2f1	0.05562109
31	0x3dd20c89	0.10256297
32	0x3d46c66e	0.04852908
33	0xbce01313	-0.027352845
34	0x3d06e432	0.032932468
35	0x3e0146b0	0.12624621
36	0xbd25b889	-0.04045919
37	0x3d984768	0.07435495
38	0x3ce82c0e	0.02834132
39	0x3d918b6a	0.07106669
40	0xbce6eac9	-0.028188126
41	0xbda4d3ab	-0.08048185
42	0xbdeb358c	-0.11484823
43	0x3dead8f4	0.11467162
44	0x3d83a1b3	0.06427326
45	0xbd8fdec3	-0.0702491
46	0x3e0a2e9d	0.13494344
47	0xbd604cd2	-0.05476076
48	0x3d374370	0.044742048
49	0x3dca39fd	0.09874342
50	0x3bd669db	0.0065433807
51	0x3d905998	0.07048339
52	0xbd9a475d	-0.07533143
53	0x3db992a4	0.090611726
54	0x3d085c50	0.03329116
55	0x3df514db	0.119668685
56	0x3dd00908	0.101579726
57	0x3db59e3f	0.08868074
58	0xbb5bf727	-0.0033564062
59	0xbc5a833f	-0.013336956
60	0xbd88132a	-0.0664428
61	0xbd342975	-0.04398485
62	0xbdc8a79b	-0.09797593
63	0xbdb993c3	-0.090613864
64	0xbdef6e65	-0.11690978
65	0x3baa4a58	0.0051968507
66	0xbcd8f8c6	-0.026485812
67	0xbc0f2360	-0.008736461
68	0xbdd4aceb	-0.10384544
69	0x3db4b1df	0.08822989
70	0x3d497899	0.049187277
71	0xbdcd018f	-0.10010063
72	0x3d9844cb	0.07434996
73	0xbc280038	-0.010253958
74	0x3d6c7a37	0.05773374
75	0x3dbd667b	0.09248062
76	0xbda68de8	-0.08132535
77	0x3d955300	0.072912216
78	0x3e096f65	0.134214
79	0xbd7779ad	-0.060418773
80	0x3dcd20a0	0.10015988
81	0x3d091ced	0.03347485
82	0x3cfdb305	0.030969152
83	0x3e18ff86	0.14941224
84	0xbc197413	-0.009366053
85	0xbcf71566	-0.03016157
86	0xbd106cf3	-0.035260152
87	0xbd216860	-0.03940618
88	0xbced3462	-0.028955642
89	0xbbf423ef	-0.0074505727
90	0x3d2960fb	0.041352253
91	0xbd571847	-0.052513387
92	0x3c8971c8	0.016777888
93	0xbcb0b40e	-0.021570232
94	0xbdab3886	-0.0836039
95	0x3c6570b2	0.014003919
96	0x3d0eb339	0.03483889
97	0x3cd00c1e	0.025396403
98	0xbc89fb70	-0.016843528
99	0xbd94916c	-0.072542995
100	0xbce0c33d	-0.027436847
101	0x3d8d66a2	0.06904341
102	0x3d185b88	0.037196666
103	0xbddf1221	-0.1089213
104	0x3dd172c2	0.102269664
105	0x3dd6fb78	0.104971826
106	0xbc86edb7	-0.016470773
107	0x3ddc30b3	0.10751476
108	0xbd8e7226	-0.06955366
109	0x3de00894	0.10939136
110	0x3d0dd4a6	0.034626625
111	0xbbd78273	-0.00657683
112	0x3d5abb91	0.053401534
113	0xbb524d0a	-0.0032089376
114	0x3de0a75b	0.109694205
115	0xbd88db7c	-0.06682488
116	0xbd80a4c7	-0.06281429
117	0x3d848cbe	0.06472157
118	0xbb53cfb0	-0.0032319836
119	0x3dc2bb03	0.09508326
120	0xbd4c34a1	-0.04985488
121	0xbd8f4636	-0.069958135
122	0x3be69eeb	0.0070379875
123	0xbd0d638b	-0.03451876
124	0xbe17a5a3	-0.14809279
125	0x3d20435c	0.03912674
126	0xbd7ccbf7	-0.061717954
127	0xbdba377f	-0.09092616
128	0xbd6d4a8b	-0.057932418
129	0x3d0cf06f	0.034408983
130	0xbc574877	-0.013139836
131	0x3baf66d4	0.0053528342
132	0x3bc77ca4	0.0060878564
133	0x3ca99a9b	0.020703604
134	0x3d88b830	0.06675756
135	0xbbd48f9f	-0.0064868475
136	0xbd5a0346	-0.053225778
137	0xbcad61ee	-0.02116486
138	0x3d19b18b	0.037522834
139	0x3de403bd	0.111335255
140	0x3d8b5fc4	0.06805375
141	0xbdcdbb4b	-0.10045489
142	0x3d355fc6	0.04428079
143	0xbddd4e0c	-0.10805902
144	0xbd378e3e	-0.044813387
145	0xbda05e46	-0.07830481
146	0xbdbe8174	-0.09302035
147	0xbcbda6ee	-0.023150887
148	0xbddf7d23	-0.1091254
149	0x3d886d4e	0.06661473
150	0x3d4e625b	0.050386768
151	0xbd8d144c	-0.06888637
152	0x3dfa1c50	0.122124314
153	0xbe198209	-0.1499101
154	0x3e0fd4c3	0.14046006
155	0x3c8c1e00	0.017104149
156	0xbd44ee91	-0.048079077
157	0xbd8365a8	-0.06415874
158	0xbd2bf151	-0.041978184
159	0xbdc7a470	-0.09748161
160	0xbcc2d7ad	-0.023784483
161	0x3de1eb3c	0.110311955
162	0xbb35bf2e	-0.002773236
163	0xbd7e2b9c	-0.062053308
164	0x3d0d9220	0.034563184
165	0x3c522985	0.012827282
166	0xbce0ecfb	-0.027456751
167	0x3d941bcb	0.072318636
168	0xbca3bba0	-0.019986928
169	0xbc8e0844	-0.017337926
170	0xbcc81a72	-0.024426673
171	0xbd31edde	-0.04343974
172	0x3d0ed7a2	0.034873612
173	0x3e2e4478	0.17018306
174	0xbd3979be	-0.045282118
175	0xbd531941	-0.051537756
176	0x3d955550	0.07291663
177	0x3df83870	0.121201396
178	0xbda137fb	-0.078720056
179	0x3d5a9135	0.053361136
180	0xbc989ccc	-0.018629454
181	0xbd9b9fbd	-0.07598827
182	0xbd32ddd2	-0.043668576
183	0x3d4ec04b	0.050476354
184	0xbdd39b05	-0.10332302
185	0xbcd8b636	-0.026454072
186	0x3da6afe6	0.08139019
187	0xbdcead45	-0.10091642
188	0x3d326519	0.043553445
189	0x3d83dfcd	0.06439171
190	0x3e017958	0.12643945
191	0x3c254cac	0.010089081
192	0x3dd6d648	0.1049009
193	0xbe15ab28	-0.14616072
194	0x3d9707f3	0.07374563
195	0x3d3b2ea2	0.04569877
196	0x3b123681	0.002231032
197	0xbb2ec577	-0.0026667991
198	0x3cf8762a	0.030329783
199	0xbc216dd5	-0.009852846
200	0x3d3f221e	0.046663396
201	0xbe0a293d	-0.13492294
202	0xbc1d2e91	-0.009593622
203	0x3cf60a67	0.030034257
204	0xbdf4b799	-0.11949081
205	0x3dc6a4e0	0.09699416
206	0xbca50a23	-0.020146435
207	0x3c98d1bf	0.018654702
208	0x3db9f72e	0.09080349
209	0xbd07ab75	-0.0331225
210	0x3d6858e2	0.05672539
211	0xbc222958	-0.009897552
212	0xbb019377	-0.0019771734
213	0x3d8dcc39	0.06923718
214	0xbd1c068b	-0.038092177
215	0xbe17ba3d	-0.14817138
216	0xbdb2fe59	-0.08739919
217	0xbdd26363	-0.10272863
218	0x3dd82a39	0.10554928
219	0xbe12d915	-0.14340623
220	0xbd11fc4f	-0.03564101
221	0xbcc102c3	-0.023560887
222	0xbd5c72a2	-0.05382026
223	0xbd1a6ad4	-0.037699535
224	0x3d289ef6	0.041167222
225	0x3d1a49c7	0.037668016
226	0xbb5ab4e9	-0.003337199
227	0xbd0df40b	-0.034656566
228	0xbdce229e	-0.100651965
229	0xbdb8f7b8	-0.090316236
230	0xbe1c8f8c	-0.15289134
231	0xbdf2fc07	-0.11864477
232	0x3cddaba1	0.027059378
233	0x3dc1f2fb	0.09470173
234	0xbc51caf4	-0.012804735
235	0xbc912a39	-0.017720329
236	0x3df836d5	0.121198334
237	0xbc4cf755	-0.01251014
238	0xbe106905	-0.14102562
239	0xbde24b1f	-0.110494845
240	0xbb9bab23	-0.0047506257
241	0x3d757298	0.05992374
242	0xbd34f99f	-0.04418337
243	0xbd389eb9	-0.045073245
244	0x3dd3da70	0.10344398
245	0x3d9c4900	0.07631111
246	0x3d1b46c3	0.03790928
247	0x3d9655d7	0.073405914
248	0x3d07da4c	0.03316717
249	0x3c5ead34	0.0135910995
250	0xbdc41e16	-0.09576051
251	0xbd27dc2e	-0.040981464
252	0x3bfb7527	0.0076738778
253	0xbbeb2911	-0.0071765264
254	0x3dd0aa5c	0.101887435
255	0xbb8fe3c5	-0.004391166

net.4.bias f4 [64]
0	0xbe032b38	-0.12809455
1	0x3ce39c8a	0.027784605
2	0xbc9b21ef	-0.01893708
3	0x3d3723d1	0.04471189
4	0xbdbb899d	-0.09157107
5	0xbd155c6f	-0.036465105
6	0x3d24b70b	0.040213626
7	0x3d9cce25	0.076565064
8	0x3dcac589	0.09900958
9	0xbd81f9c9	-0.06346471
10	0x3ce8dc9d	0.02842551
11	0x3d3fa41e	0.046787374
12	0xbd4ab8df	-0.049492713
13	0xbdbc9bc3	-0.09209397
14	0xbd0cb109	-0.03434852
15	0xbd1a2d99	-0.03764114
16	0xbdcac559	-0.09900922
17	0xbe111521	-0.14168216
18	0x3a6a768b	0.0008944056
19	0x3d4fa6fe	0.050696366
20	0xbca14d73	-0.019690251
21	0xbd5bda75	-0.053675134
22	0x3cf128fd	0.02943849
23	0xbc3acefd	-0.011401889
24	0x3dbce0fd	0.092226006
25	0xbdc9f7cb	-0.09861716
26	0xbd4795c2	-0.048726805
27	0x3e0a2e6d	0.13494273
28	0xbd486e19	-0.048933122
29	0xbd8b2d0b	-0.06795701
30	0xbdd4dd4c	-0.103937715
31	0x3c62e3c5	0.01384825
32	0x3c09114a	0.008365938
33	0xbcb4c19f	-0.022064982
34	0xbc2421a3	-0.010017785
35	0xbdbfc0ad	-0.09362922
36	0xbad0958a	-0.0015913707
37	0x3d876ebe	0.06612919
38	0xbc76a7ee	-0.015054686
39	0x3d708d10	0.058728278
40	0x3d945030	0.07241857
41	0xbdae75fa	-0.08518596
42	0xbdb40379	-0.08789725
43	0xbda69174	-0.08133212
44	0x3d6f6d93	0.058454107
45	0x3e264e5c	0.16240829
46	0x3dee863f	0.11646699
47	0xbd16c6d0	-0.036810696
48	0xbcfbf20a	-0.030755062
49	0x3d711ae5	0.05886354
50	0x3d056fbb	0.032577258
51	0x3d742f80	0.059615612
52	0xbce5bea4	-0.028045006
53	0x3cacf124	0.021111079
54	0xbe088c25	-0.13334711
55	0xbb48e1c7	-0.0030652152
56	0x3bcfae79	0.0063379374
57	0xbc31c228	-0.010849513
58	0x3d9e7222	0.07736613
59	0xbe16335f	-0.14668034
60	0x3d9016f0	0.07035625
61	0xbd319532	-0.043355174
62	0xbd369765	-0.044577975
63	0x3cb8f0f8	0.02257584

net.6.weight f4 [1, 64]
0	0xbe06e1c7	-0.13172065
1	0x3c90e4a4	0.01768715
2	0x3dfb33a7	0.12265711
3	0x3d8d0688	0.06886011
4	0xbda6ea96	-0.081502125
5	0xbd82b938	-0.06382984
6	0x3c88dea1	0.01670772
7	0xbdaa5a8b	-0.08318051
8	0x3d36b0f2	0.044602342
9	0xbd154456	-0.036442123
10	0xbe12633e	-0.1429567
11	0x3d92f7d9	0.071761794
12	0x3e6a1112	0.22858074
13	0xbe0247a4	-0.12722641
14	0xbd5c7f78	-0.0538325
15	0x3e66daee	0.22544453
16	0xbddf3191	-0.10898126
17	0xbe059a18	-0.13047063
18	0x3e0ddf4e	0.13854715
19	0x3d9f06b2	0.07764949
20	0xb9985b33	-0.00029059648
21	0xbe1c293e	-0.15250108
22	0x3cc5cba6	0.024144959
23	0xbdfae3da	-0.122504905
24	0xbd10c998	-0.035348505
25	0xbe095f75	-0.1341532
26	0x3c475b44	0.0121677555
27	0x3e894cc4	0.2681638
28	0x3d59c0ab	0.053162258
29	0xbe0270a3	-0.1273828
30	0xbe3a9657	-0.18221413
31	0xbd8e794e	-0.06956731
32	0xbdb689af	-0.0891298
33	0x3d36c42e	0.044620685
34	0x3df8be64	0.12145689
35	0x3d55b23d	0.052171934
36	0x3e5dc745	0.21658047
37	0xbe13ca50	-0.14432645
38	0x3a3237f2	0.00067984976
39	0x3d8f07fc	0.06983945
40	0x3dae70d3	0.08517613
41	0x3df3c2fd	0.119024254
42	0xbd9707f8	-0.07374567
43	0x3dcd0cb5	0.10012189
44	0x3d158a94	0.03650911
45	0x3e6859c2	0.2269049
46	0x3dd11106	0.10208325
47	0x3cc705cd	0.024294758
48	0x3d1a247d	0.037632454
49	0xbdd298f1	-0.102830775
50	0xbd8dbba2	-0.06920554
51	0xbce3fa19	-0.027829217
52	0xbe86a0dc	-0.262946
53	0x3acdf7d4	0.0015714117
54	0xbd3c8e3e	-0.04603409
55	0x3e02ae5c	0.12761825
56	0xbdff8498	-0.12476462
57	0xbd7effc1	-0.062255625
58	0x3d9da5ef	0.07697665
59	0xbddfc894	-0.10926929
60	0xbd24cc30	-0.04023379
61	0xbb2a746a	-0.002600933
62	0xbde0516b	-0.10953029
63	0xbda39920	-0.07988191
