abc_bcs/v_t1.pth (torch, 37923 bytes, 7 tensors)

net.0.weight f4 [64, 3]
0.33378333 0.19627257 -0.1290637 0.05445564 -0.11377144 -0.3290654 -0.2456331 -0.15944718
0.32620496 -0.2862867 0.3885046 -0.13693807 0.3299391 -0.110293254 -0.022782287 0.36178634
0.43318596 -0.5236527 -0.5199382 0.54796374 0.40571165 -0.3339767 0.49984613 -0.3130837
0.4561112 -0.24827404 0.09451269 0.726017 0.15169324 -0.15613285 0.4755687 0.23858291
0.039378934 -0.07420671 -0.13269335 -0.26406235 -0.15597737 -0.25901538 -0.45645747 -0.35152906
-0.23403876 -0.11502409 0.5848173 0.062163476 0.1859951 -0.6283148 0.060971864 0.17185225
-0.25132763 -0.35438475 -0.3496289 0.4868379 -0.37241033 0.52772444 0.50036347 -0.0060236487
-0.4689162 0.17786926 -0.15071799 0.38688904 -0.6160347 0.5144821 -0.21057688 -0.21691759
-0.40382713 -0.34617487 0.26028317 -0.37463212 -0.4473352 0.32481274 0.22972198 -0.04354236
-0.13542135 0.6392103 0.1771402 0.6171135 -0.57065624 0.10254646 -0.1799105 -0.23742093
0.07839131 0.4216597 -0.09947238 0.35529476 0.29843685 -0.5625709 0.090294376 0.33033046
0.008761264 0.17901109 -0.23198195 0.30999127 0.116734274 0.120575815 0.5089724 0.40592605
-0.37144703 -0.20595491 -0.011413228 -0.37750494 -0.2043109 -0.3884396 -0.52515084 0.40802407
0.33698022 -0.33928296 0.21527584 -0.59127504 -0.15902464 0.19708835 0.6724454 0.2837629
0.41428378 -0.10020286 0.5215448 0.40991727 0.11036819 -0.12611008 -0.08682456 -0.3165953
-0.46644804 -0.15907398 0.34609708 0.36983308 -0.29228655 -0.4943388 -0.06225014 -0.029070925
0.55801797 -0.33909628 -0.17837559 0.059169367 -0.70843697 0.048091676 0.1899338 -0.039545782
-0.5439472 -0.13867211 0.72399145 -0.3226141 -0.28411743 0.1170513 0.3389296 0.04588251
-0.4751105 0.42925984 -0.3308075 0.5559321 -0.28252918 0.18647102 -0.32376108 -0.23985308
0.15893792 0.4730507 0.13406743 -0.26455748 0.5530289 -0.039625853 0.27195415 -0.3944476
0.3158879 0.44215465 -0.103798196 -0.43103996 -0.32886994 -0.56106824 -0.39710313 0.42702937
0.43403122 0.45076165 -0.17360224 0.29037076 -0.062141795 0.113253124 0.30374107 -0.07304465
0.05651602 -0.5839028 -0.22578822 -0.46236363 0.29412854 -0.23556487 -0.002852139 -0.51595783
0.00067722256 0.12949131 0.04878224 -0.32453546 -0.17178597 -0.64715713 -0.17006643 0.24264477
00000000: a6e5 aa3e adfb 483e 4629 04be e10c 5f3d
00000010: 0001 e9bd 437b a8be 3e87 7bbe 1f46 23be
00000020: 5604 a73e 2c94 92be 13ea c63e 7e39 0cbe
00000030: c7ed a83e 6ee1 e1bd eba1 babc 0f3c b93e
00000040: 8dca dd3e 1a0e 06bf ab1a 05bf 5a47 0c3f
00000050: 70b9 cf3e fefe aabe d5eb ff3e 824c a0be
00000060: 6887 e93e 8d3b 7ebe df8f c13d 40dc 393f
00000070: 7955 1b3e 4ae1 1fbe be7d f33e 144f 743e
00000080: ce4b 213d b0f9 97bd c4e0 07be 2e33 87be
00000090: 88b8 1fbe aa9d 84be cbb4 e9be 9efb b3be
000000a0: dba7 6fbe c091 ebbd 96b6 153f 219f 7e3d
000000b0: 8075 3e3e 3dd9 20bf a2bd 793d 09fa 2f3e
000000c0: 04ae 80be eb71 b5be 8f02 b3be d142 f93e
000000d0: 91ac bebe f318 073f d217 003f 0762 c5bb
000000e0: c915 f0be 5c23 363e d155 1abe 5216 c63e
000000f0: 73b4 1dbf 19b5 033f 77a1 57be a51f 5ebe
00000100: 6ec2 cebe d53d b1be d643 853e c8cf bfbe
00000110: 1f09 e5be db4d a63e 3d3c 6b3e 7959 32bd
00000120: e5ab 0abe 49a3 233f 3e64 353e 26fb 1d3f
00000130: 8716 12bf e103 d23d 753a 38be 791e 73be
00000140: a08b a03d c8e3 d73e 2db8 cbbd 32e9 b53e
00000150: b7cc 983e a604 10bf 42ec b83d 1321 a93e
00000160: 688b 0f3c af4e 373e ad8c 6dbe 2db7 9e3e
00000170: 6112 ef3d 74f0 f63d 044c 023f 8ad5 cf3e
00000180: 4e2e bebe d8e5 52be 8cfe 3abc 5448 c1be
00000190: e036 51be 8ee1 c6be 4970 06bf 88e8 d03e
000001a0: ac88 ac3e 7fb6 adbe 4571 5c3e cd5d 17bf
000001b0: 5bd7 22be 87d1 493e 6225 2c3f 5f49 913e
000001c0: 011d d43e 2837 cdbd f683 053f ade0 d13e
000001d0: b808 e23d 0023 01be 13d1 b1bd c718 a2be
000001e0: 47d2 eebe 4ae4 22be a333 b13e c35a bd3e
000001f0: 95a6 95be fa19 fdbe 01fa 7ebd 2626 eebc
00000200: 44da 0e3f 079e adbe 17a8 36be 945b 723d
00000210: 205c 35bf c7fb 443d 027e 423e c2fa 21bd
00000220: 2040 0bbf 1000 0ebe 8157 393f ad2d a5be
00000230: d777 91be 98b8 ef3d 2e88 ad3e 4cef 3b3d
00000240: af41 f3be f2c7 db3e 9a5f a9be 9151 0e3f
00000250: aaa7 90be 42f2 3e3e 03c4 a5be 0c9c 75be
00000260: 9fc0 223e b433 f23e f948 093e 1474 87be
00000270: 4d93 0d3f b84e 22bd 933d 8b3e 09f5 c9be
00000280: 0fbc a13e 1862 e23e 2694 d4bd 45b1 dcbe
00000290: a461 a8be 2ba2 0fbf 1a51 cbbe 98a3 da3e
000002a0: 5739 de3e 3bca e63e c9c4 31be 7aab 943e
000002b0: 6588 7ebd 41f1 e73d f383 9b3e 6f98 95bd
000002c0: 587d 673d a77a 15bf 0735 67be edba ecbe
000002d0: 0498 963e eb37 71be f4ea 3abb d015 04bf
000002e0: a387 313a 5f99 043e e3cf 473d 8329 a6be
000002f0: a9e8 2fbe 17ac 25bf e525 2ebe df77 783e

net.0.bias f4 [64]
0.25931677 -0.17423972 0.18454178 0.18719828 0.044197947 0.36885127 -0.48306373 -0.4721094
0.22837856 -0.21675983 0.019573651 0.024564035 0.57545966 -0.13404092 -0.57221395 0.5197087
0.51857287 0.3546144 -0.34022027 -0.21661393 -0.19217427 -0.43827683 0.41537496 -0.23576096
0.46401656 0.34577614 0.5293305 -0.041240565 -0.37361428 -0.107801266 0.18593664 -0.29016593
0.24978027 -0.3391898 -0.1813169 0.0045557395 0.55125797 -0.4874059 0.4514615 -0.16503978
-0.026491337 0.5815193 0.4723029 -0.4694017 0.1983109 0.018934015 0.1194198 0.2699976
0.32523644 -0.30815253 0.13434617 -0.040730473 0.027276564 0.06559288 -0.54602 0.30367604
0.014093485 0.34034297 0.20250691 0.13623044 0.5808539 0.3093203 -0.31936872 0.44752058
00000000: 2bc5 843e e66b 32be 85f8 3c3e e8b0 3f3e
00000010: e808 353d 13da bc3e 2154 f7be 53b8 f1be
00000020: 12dc 693e 4af6 5dbe ec58 a03c 843a c93c
00000030: 5351 133f 0642 09be 9d7c 12bf a10b 053f
00000040: 31c1 043f 0590 b53e 5a31 aebe 0bd0 5dbe
00000050: 55c9 44be d265 e0be 07ac d43e 526b 71be
00000060: 9493 ed3e 9209 b13e 3482 073f deeb 28bd
00000070: 5f4a bfbe e9c6 dcbd 2d66 3e3e a190 94be
00000080: 66c6 7f3e 49aa adbe 23ab 39be 5048 953b
00000090: 3e1f 0d3f 448d f9be f625 e73e 3000 29be
000000a0: 5c04 d9bc 73de 143f b0d1 f13e 6b55 f0be
000000b0: 0312 4b3e 821b 9b3c 5e92 f43d 203d 8a3e
000000c0: 6485 a63e 2bc6 9dbe 0b92 093e ffd4 26bd
000000d0: 1a73 df3c 8f55 863d f7c7 0bbf 6d7b 9b3e
000000e0: 5ce8 663c 6f41 ae3e f95d 4f3e fe7f 0b3e
000000f0: d7b2 143f 3b5f 9e3e 4c84 a3be 6b21 e53e

net.2.weight f4 [64, 64]
-0.044940185 -0.10686154 -0.06923943 -0.055348773 0.18434235 0.037555225 -0.036033638 0.00052589114
-0.02813747 0.06904812 -0.0037658098 0.03638569 -0.16581397 -0.1279529 -0.0064410493 0.09386389
-0.0939386 -0.08132376 0.08113322 0.23885685 0.023957297 -0.018293358 -0.07053466 0.056833696
0.08169895 0.105971865 -0.017609628 0.085929416 0.09124619 0.07262285 -0.08493551 -0.037728872
-0.03953384 -0.10873044 -0.123057075 0.04068335 -0.13146913 0.026975127 0.0663856 -0.034335967
-0.017791882 -0.009909032 0.033809114 -0.11194952 -0.12635385 0.10617396 0.12982227 0.08582184
-0.022358911 0.029195545 0.04212415 0.092106864 -0.016505022 -0.097210035 -0.088256605 -0.05733907
0.09722609 0.12517327 -0.054749977 -0.0036670258 0.009130676 -0.06726492 -0.03851984 -0.103073716
-0.039893396 -0.019539097 -0.2244013 -0.096329644 0.18869866 -0.0026874186 0.085224174 0.021278905
0.13661289 -0.024274835 0.02156797 0.10257278 -0.2953311 -0.10321358 0.2875508 -0.12909989
-0.20177786 -0.049629267 0.15471624 0.22317132 0.040442195 -0.09926456 0.061202243 0.16712663
-0.17369081 -0.055939168 -0.050165277 -0.05522476 0.16311945 0.15576646 -0.06722978 -0.04116816
-0.16649416 -0.002200547 -0.16486003 0.08777664 -0.0699184 0.14239894 0.007223633 0.09746157
-0.02610866 -0.040122952 -0.06189392 -0.029340457 -0.20275708 0.02151255 0.13629647 -0.14559564
-0.16953722 0.26547033 -0.01007977 0.004917454 0.013371082 -0.20223942 0.14010747 -0.2150035
-0.15283386 -0.032012682 0.11533342 -0.17353867 -0.04017273 -0.09853342 -0.021477893 -0.28803092
-0.027087506 -0.084467866 0.047121175 -0.06813533 -0.009616579 0.071297914 -0.060473572 3.215782e-05
0.090302505 0.12026818 -0.03961096 -0.11566214 0.08197621 0.087043874 -0.010023253 0.08926693
0.023566242 -0.033247497 0.06870982 -0.05193777 -0.00054115226 -0.03599425 -0.009369327 -0.0023306669
0.036731258 -0.012104123 0.0069869277 0.041302446 0.10475461 -0.008175258 -0.00437599 0.13328731
0.056821838 -0.0030109873 0.0104546845 0.0017474326 0.042581387 0.077477835 0.08747563 -0.11001748
-0.06115183 0.061960332 -0.11768845 0.059085775 -0.06986892 0.1028819 0.091280624 0.017715828
-0.05905105 -0.052256122 0.0518257 -0.060318235 -0.053740133 -0.11477351 0.008549995 0.062508754
0.118791364 0.05705291 0.051666647 0.07394676 -0.049914725 0.08827967 -0.04242014 0.10486474
-0.080763 -0.119883955 -0.049094427 0.122915015 -0.09766301 -0.053376935 -0.059398547 -0.013789929
-0.009642263 0.010661382 0.12827572 -0.09962204 -0.030488003 0.03834512 0.09563826 -0.08397405
-0.023543403 0.08462567 -0.0043080314 0.043192394 0.057905402 -0.016722964 -0.017749859 -0.037049696
-0.0004645889 -0.11403197 -0.07671354 0.0006045645 0.023131467 -0.023592418 -0.10997704 -0.02085033
0.09352733 -0.11625899 -0.019531384 0.040641185 -0.096650876 -0.11642733 0.09742588 -0.0643962
0.054994762 0.022249155 -0.09869653 0.110475875 0.024854796 0.085789 -0.0019671663 -0.05729537
0.049355578 -0.079730414 -0.09502094 -0.13183181 0.07477113 0.04134556 0.07764277 0.11389197
0.0065514967 -0.033606336 0.031760488 0.039729524 0.08310613 -0.1008799 -0.09557316 -0.0684559
00000000: 3313 38bd 39da dabd 67cd 8dbd 65b5 62bd
00000010: 3ec4 3c3e 82d3 193d 0298 13bd f5db 093a
00000020: 8d80 e6bc 1a69 8d3d cecb 76bb 2909 153d
00000030: 23cb 29be 1606 03be 700f d3bb b63b c03d
00000040: e162 c0bd 128d a6bd 2c29 a63d e496 743e
00000050: 1842 c43c f4db 95bc 7a74 90bd 73ca 683d
00000060: c751 a73d c707 d93d 1142 90bc c3fb af3d
00000070: 48df ba3d 4abb 943d abf2 adbd 9789 1abd
00000080: 3cee 21bd 11ae debd 5905 fcbd 96a3 263d
00000090: d89f 06be f1fa dc3c 2cf5 873d dfa3 0cbd
000000a0: 48c0 91bc 7e59 22bc 6d7b 0a3d ca45 e5bd
000000b0: e762 01be bc71 d93d 21f0 043e 5cc3 af3d
000000c0: 092a b7bc 7f2b ef3c 5f8a 2c3d 86a2 bc3d
000000d0: 8a35 87bc 0e16 c7bd e1bf b4bd 5fdc 6abd
000000e0: 791e c73d 6c2d 003e 8341 60bd 7c52 70bb
000000f0: d598 153c 31c2 89bd fbc6 1dbd 5018 d3bd
00000100: 4267 23bd 7510 a0bc 74c9 65be 7a48 c5bd
00000110: 393a 413e 671f 30bb 038a ae3d 1951 ae3c
00000120: 40e4 0b3e 05dc c6bc 50af b03c ad11 d23d
00000130: a335 97be a461 d3bd dc39 933e c332 04be
00000140: db9e 4ebe 0f48 4bbd ef6d 1e3e 0687 643e
00000150: b7a6 253d 384b cbbd 34af 7a3d 3e23 2b3e
00000160: 01dc 31be 7820 65bd 1b7a 4dbd 5c33 62bd
00000170: c908 273e 3e81 1f3e c4af 89bd f29f 28bd
00000180: 727d 2abe 0d37 10bb 11d1 28be 3dc4 b33d
00000190: 6131 8fbd 07d1 113e 3ab4 ec3b ee99 c73d
000001a0: d4e1 d5bc f757 24bd 7b84 7dbd 665b f0bc
000001b0: 8d9f 4fbe 163b b03c 4d91 0b3e 0617 15be
000001c0: 2a9b 2dbe baeb 873e 9f25 25bc 9822 a13b
000001d0: 6212 5b3c da17 4fbe 5578 0f3e e129 5cbe
000001e0: 7b80 1cbe bb1f 03bd ee33 ec3d 1fb4 31be
000001f0: 298c 24bd e4cb c9bd 68f2 afbc ca78 93be
00000200: 9ee6 ddbc 7dfd acbd 2202 413d 898a 8bbd
00000210: db8e 1dbc a404 923d 23b3 77bd 32e1 0638
00000220: 85f0 b83d 2a4f f63d 1a3f 22bd 46e0 ecbd
00000230: 25e3 a73d 0f44 b23d 9238 24bc 95d1 b63d
00000240: fe0d c13c 872e 08bd bcb7 8c3d b3bc 54bd
00000250: 1ddc 0dba b56e 13bd ce81 19bc 1abe 18bb
00000260: 8473 163d 5f50 46bc 99f2 e43b c12c 293d
00000270: 9689 d63d 84f1 05bc 7764 8fbb 787c 083e
00000280: 04be 683d fc53 45bb 204a 2b3c 1c0a e53a
00000290: d269 2e3d b3ac 9e3d 6c26 b33d d850 e1bd
000002a0: 577a 7abd 1eca 7d3d a406 f1bd ed03 723d
000002b0: 7017 8fbd bfb3 d23d 56f1 ba3d c920 913c
000002c0: 84df 71bd 840a 56bd 2f47 543d 4110 77bd
000002d0: 9d1e 5cbd 600e ebbd 4715 0c3c 9704 803d
000002e0: e348 f33d 50b0 693d 68a0 533d 6671 973d
000002f0: 6273 4cbd f9cb b43d bec0 2dbd 53c3 d63d
00000300: 1267 a5bd b885 f5bd 3d17 49bd deba fb3d
00000310: 8b03 c8bd c6a1 5abd e44b 73bd 28ef 61bc
00000320: 95fa 1dbc 14ad 2e3c b65a 033e a406 ccbd
00000330: fac1 f9bc c60f 1d3d fedd c33d 96fa abbd
00000340: 18de c0bc 3950 ad3d 632a 8dbb 82ea 303d
00000350: 372e 6d3d 99fe 88bc 2768 91bc 6cc1 17bd
00000360: 1194 f3b9 9889 e9bd fd1b 9dbd a37b 1e3a
00000370: 347e bd3c e344 c1bc a43b e1bd 50ce aabc
00000380: 428b bf3d 3119 eebd 4800 a0bc 5f77 263d
00000390: e5f0 c5bd 7471 eebd 3887 c73d 28e2 83bd
000003a0: 3042 613d dc43 b63c 6821 cabd 2d41 e23d
000003b0: 499c cb3c 25b2 af3d 93eb 00bb 8dae 6abd
000003c0: 1329 4a3d b349 a3bd 579a c2bd ebfe 06be
000003d0: 9b21 993d f659 293d 2c03 9f3d 3140 e93d
000003e0: f0ad d63b cca6 09bd 4917 023d 6dbb 223d
000003f0: 8c33 aa3d 1f9a cebd dcbb c3bd 9b32 8cbd

net.2.bias f4 [64]
-0.10623938 -0.08287789 -0.073284246 0.10152037 0.09549471 0.0763683 -0.0030240265 -0.13007583
-0.06656543 -0.02413357 -0.11813988 -0.14553043 -0.07081364 -0.092918746 -0.11336988 -0.0028708423
-0.030916125 0.17307717 -0.068299085 0.0050112433 0.15012343 0.017315082 0.04376376 -0.14192005
0.011640423 -0.070801415 0.04455083 -0.1599071 0.106655896 0.03576826 -0.03695737 0.06311321
0.07092826 -0.028431563 0.04546383 -0.0056397393 0.031234477 -0.07100996 -0.11574322 0.1395965
0.03203417 0.00309499 -0.1040181 -0.110324666 -0.041354515 0.11045316 -0.08805979 0.054020174
0.09189626 0.027773477 -0.023627307 -0.0015539752 -0.005807508 0.047015034 0.08144976 0.063091755
0.13294692 -0.037787028 -0.105744235 -0.06689397 -0.080584295 0.11927908 0.032500774 -0.10730465
00000000: 0894 d9bd e2bb a9bd 0d16 96bd e9e9 cf3d
00000010: bb92 c33d fc66 9c3d bf2e 46bb 9932 05be
00000020: 7553 88bd c4b3 c5bc 52f3 f1bd ee05 15be
00000030: be06 91bd 2f4c bebd 782e e8bd be24 3cbb
00000040: d043 fdbc 243b 313e 64e0 8bbd 5b35 a43b
00000050: f5b9 193e 5cd8 8d3c a141 333d 7d53 11be
00000060: 79b7 3e3c 5500 91bd ee7a 363d b0be 23be
00000070: 686e da3d bd81 123d 9c60 17bd 8041 813d
00000080: d642 913d 4fe9 e8bc 4838 3a3d 90cd b8bb
00000090: 72df ff3c ab6d 91bd c80a edbd 63f2 0e3e
000000a0: 4336 033d 51d5 4a3b 7107 d5bd e6f1 e1bd
000000b0: 5a63 29bd 4435 e23d b158 b4bd 4244 5d3d
000000c0: 1b34 bc3d 3485 e33c 0e8e c1bc c1ae cbba
000000d0: e84c bebb d692 403d 22cf a63d 4036 813d
000000e0: 3d23 083e 92c6 1abd 6f90 d8bd b5ff 88bd
000000f0: 6109 a5bd 9748 f43d 881f 053d 8ac2 dbbd

net.4.weight f4 [64, 64]
0.09227061 0.03428585 0.058155287 0.104179755 0.003339381 0.04633079 0.09230114 0.1198682
-0.08006141 -0.04750103 -0.04447616 0.12244412 0.07192388 -0.02043184 0.03964672 -0.05715382
-0.0378947 -0.020410528 0.01996632 -0.10393887 0.05861126 0.05132225 0.0751689 0.003014724
-0.09066588 -0.104579255 -0.0386568 -0.050326586 -0.12197842 0.08018557 0.012640681 0.016225453
0.011293036 0.014306345 -0.13157527 -0.098008715 0.053807285 -0.049082607 -0.11390322 0.16939092
0.07490935 -0.09430258 -0.12903045 0.013623732 -0.07244607 -0.05424515 0.084529 0.04330916
0.095546745 0.025332473 -0.005484163 -0.14037955 -0.08729707 0.016064426 0.08840488 -0.12175224
0.08270098 -0.0070068436 0.07569948 0.097806185 0.073792934 0.13172953 -0.01942756 -0.047318503
-0.081916936 0.15746881 0.06535988 0.058263343 -0.008561489 0.11453503 0.023032062 -0.010679558
0.140083 0.060457107 0.042356234 0.10907525 -0.020931963 -0.074400365 0.040075526 0.14997108
0.020228017 -0.1274113 0.077448964 -0.087168455 -0.10122139 -0.08515312 0.10928472 -0.13771805
-0.03016661 0.0068933005 0.043648776 -0.12557757 0.03847649 -0.06979838 -0.05712432 -0.069884986
-0.22127686 0.07324924 0.005032638 -0.079816334 -0.06908442 0.08846383 0.016180595 0.34345275
-0.01745112 -0.027418787 -0.0141835315 -0.056917004 0.24370456 -0.019885404 0.08221697 0.011770095
0.03831481 -0.044776533 0.07283248 -0.08323912 0.00039274027 0.005588788 0.01872717 -0.14833605
-0.043952562 -0.06820896 -0.10999639 -0.015125248 -0.04350898 0.037890423 0.02526815 0.08577036
-0.044209566 -0.13139658 0.0768633 -0.029226702 0.11399557 0.026497727 0.03245912 -0.01758309
-0.011288529 -0.123179756 0.08463805 -0.0346494 0.12436235 0.01477541 0.07752972 0.004644192
-0.07149666 0.103123054 -0.023650639 -0.07588989 0.08509881 0.050267253 -0.06694482 -0.062166277
-0.021764703 -0.044366114 0.04498282 0.0099811135 0.024900245 0.068286516 -0.12695198 0.12694316
-0.013511383 0.07621857 0.06522611 -0.008211641 0.03419174 -0.029424375 0.032640845 -0.023275014
0.05303151 0.02774719 0.0803634 -0.02060913 0.01359783 0.07558295 -0.027066493 0.06424775
0.07344138 -0.09610055 -0.11942605 -0.031805616 0.023552105 -0.005106939 -0.012561068 0.011317281
0.120849475 0.019621676 0.029986858 -0.06625301 0.10405846 -0.0014932253 -0.0907791 -0.06441295
-0.058747925 0.011666294 0.1096975 0.068221726 -0.07643474 0.12358576 0.009181523 0.08955132
-0.07844108 0.021698264 -0.039307564 0.015318833 -0.04076697 -0.119479254 0.08236461 0.050726473
0.02437805 0.13173296 0.08925258 -0.011368543 -0.0501033 0.10484045 -0.045296792 -0.018942246
-0.08114717 -0.029194433 -0.06400916 0.003512297 -0.039353877 -0.14913899 -0.053015146 0.08234541
0.04690721 -0.061195895 0.016504193 -0.04386922 0.03464201 0.059047144 0.054311056 -0.04925416
-0.08039156 0.06643556 -0.0075008385 0.039174292 -0.058183093 -0.041998032 0.06933094 -0.06548941
-0.09108421 -0.0999669 0.05162551 0.028782142 -0.00509338 -0.07035776 0.032292623 -0.06630505
-0.009429618 0.027325204 0.0807776 -0.117036626 0.003956943 0.061814837 0.1415505 -0.04279857
00000000: 60f8 bc3d 526f 0c3d 3d34 6e3d 325c d53d
00000010: 84d9 5a3b 5bc5 3d3d 6108 bd3d 757d f53d
00000020: 3df7 a3bd 7190 42bd a22c 36bd fcc3 fa3d
00000030: d44c 933d ad60 a7bc 9964 223d 201a 6abd
00000040: 7937 1bbd fb33 a7bc 6890 a33c e7dd d4bd
00000050: 5c12 703d 4837 523d 27f2 993d ad92 453b
00000060: 08af b9bd a62d d6bd 9856 1ebd 4023 4ebd
00000070: d2cf f9bd 5538 a43d dc1a 4f3c 3eeb 843c
00000080: 6d06 393c 2965 6a3c abbb 06be cbb8 c8bd
00000090: 0765 5c3d d80a 49bd 1746 e9bd d074 2d3e
000000a0: 136a 993d b621 c1bd 8f20 04be 1336 5f3c
000000b0: 9b5e 94bd 2a30 5ebd 8a1d ad3d f264 313d
000000c0: 03ae c33d 0c86 cf3c 7eb4 b3bb a8bf 0fbe
000000d0: cec8 b2bd 8b99 833c 9e0d b53d 3d59 f9bd
000000e0: 225f a93d aa99 e5bb 5408 9b3d 9c4e c83d
000000f0: c020 973d 1be4 063e 8c26 9fbc 0cd1 41bd
00000100: 11c4 a7bd 813f 213e 67db 853d 8ba5 6e3d
00000110: 7d45 0cbc 5891 ea3d bcad bc3c 50f9 2ebc
00000120: eb71 0f3e dfa1 773d bb7d 2d3d d862 df3d
00000130: 8279 abbc 385f 98bd 3c26 243d 0592 193e
00000140: 3ab5 a53c 1c78 02be 909d 9e3d 6085 b2bd
00000150: 294d cfbd c264 aebd abd0 df3d f605 0dbe
00000160: f71f f7bc 32e1 e13b 0fc9 323d 6897 00be
00000170: 8699 1d3d 74f2 8ebd 31fb 69bd dc1f 8fbd
00000180: 6796 62be b303 963d d4e8 a43b bf76 a3bd
00000190: 227c 8dbd 862c b53d 2b8d 843c 0ad9 af3e
000001a0: a7f5 8ebc 5d9d e0bc 0b62 68bc ce21 69bd
000001b0: b08d 793e b7e6 a2bc 5f61 a83d 5bd7 403c
000001c0: fdef 1c3d 9967 37bd 3229 953d 4679 aabd
000001d0: b5e8 cd39 2722 b73b b969 993c 68e5 17be
000001e0: 9a07 34bd 24b1 8bbd ca45 e1bd e3cf 77bc
000001f0: 7936 32bd fd32 1b3d 27ff ce3c 5fa8 af3d
00000200: 1715 35bd d38c 06be 816a 9d3d d66c efbc
00000210: 8276 e93d c311 d93c dbf3 043d 6a0a 90bc
00000220: 86f3 38bc ab45 fcbd b756 ad3d 87ec 0dbd
00000230: b0b1 fe3d 9014 723c e7c7 9e3d 4e2e 983b
00000240: d76c 92bd 2e32 d33d fcbe c1bc 296c 9bbd
00000250: 4948 ae3d 09e5 4d3d 5e1a 89bd 11a2 7ebd
00000260: e44b b2bc 3eb9 35bd e83f 383d d387 233c
00000270: 99fb cb3c cdd9 8b3d b3ff 01be 63fd 013e
00000280: d95e 5dbc 7b18 9c3d 4495 853d 1e8a 06bc
00000290: a30c 0c3d 630b f1bc 68b2 053d 3eab bebc
000002a0: 9237 593d 134e e33c 9195 a43d 7ad4 a8bc
000002b0: 6fc9 5e3c 3ccb 9a3d 8dba ddbc 5394 833d
000002c0: 6f68 963d 5dd0 c4bd a595 f4bd 9b46 02bd
000002d0: 58f0 c03c 1c58 a7bb f0cc 4dbc 1e6c 393c
000002e0: ee7f f73d a3bd a03c 00a7 f53c a8af 87bd
000002f0: 9a1c d53d 54b8 c3ba 65ea b9bd f0ea 83bd
00000300: aaa1 70bd fc23 3f3c 15a9 e03d d5b7 8b3d
00000310: d189 9cbd 881a fd3d 196e 163c af66 b73d
00000320: b8a5 a0bd 8fc0 b13c f800 21bd d8fb 7a3c
00000330: 44fb 26bd 8ab1 f4bd c7ae a83d 90c6 4f3d
00000340: 7ab4 c73c 01e5 063e 0fca b63d 2043 3abc
00000350: 1e39 4dbd 97b6 d63d 2189 39bd c52c 9bbc
00000360: 7d30 a6bd 2a29 efbc 3c17 83bd 912e 663b
00000370: 8831 21bd e4b7 18be 6926 59bd b6a4 a83d
00000380: c621 403d 8ca8 7abd cd33 873c 36b0 33bd
00000390: c8e4 0d3d 6bdb 713d 4575 5e3d bbbe 49bd
000003a0: 55a4 a4bd 5e0f 883d 98c9 f5bb 3975 203d
000003b0: 6551 6ebd 2106 2cbd 61fd 8d3d 501f 86bd
000003c0: 5c8a babd 72bb ccbd 4575 533d 87c8 eb3c
000003d0: 5ee6 a6bb bb17 90bd 4545 043d f1ca 87bd
000003e0: af7e 1abc 1bd9 df3c ba6e a53d e6b0 efbd
000003f0: 3ea9 813b 8e31 7d3d 9df2 103e 8e4d 2fbd

net.4.bias f4 [64]
0.044845656 0.017171308 -0.10092518 -0.03481386 0.06717691 0.00039309327 0.00063999754 0.0945938
-0.09234886 0.001444302 -0.010232442 -0.08272552 0.05196393 0.078167915 -0.01777964 -0.0001490888
-0.04038587 0.063689865 0.042487007 0.062285513 -0.06104416 0.04570276 0.03274081 -0.11917916
0.04688673 0.0071593 -0.009347666 -0.028050207 -0.09142655 0.019101802 -0.024368199 -0.022993758
-0.09743936 -0.092158936 -0.023910044 0.05982135 0.013064587 -0.034095608 0.088197574 0.024430858
0.075124405 -0.12660107 0.0589117 -0.0011263363 0.0022988382 -0.07384353 -0.07613849 0.024672328
-0.013316243 -0.07538233 0.062575065 -0.10277655 -0.11869253 0.10463119 -0.09115325 0.029752476
-0.07360682 0.07201173 0.038760006 -0.08544903 -0.13194606 -0.1486385 0.062028762 -0.11674394
00000000: 14b0 373d d8aa 8c3c dcb1 cebd fa98 0ebd
00000010: 0c94 893d 1618 ce39 82c5 273a 65ba c13d
00000020: 6621 bdbd bc4e bd3a f9a5 27bc ff6b a9bd
00000030: 21d8 543d 8016 a03d 9ca6 91bc b854 1cb9
00000040: a76b 25bd d56f 823d db06 2e3d 181f 7f3d
00000050: 7109 7abd d132 3b3d 3a1b 063d 3414 f4bd
00000060: 4d0c 403d 9098 ea3b f426 19bc 8cc9 e5bc
00000070: d83d bbbd 627b 9c3c d19f c7bc 685d bcbc
00000080: 4a8e c7bd d3bd bcbd ffde c3bc 3b07 753d
00000090: d90c 563c d6a7 0bbd eea0 b43d 3923 c83c
000000a0: d3da 993d b6a3 01be 654d 713d 93a1 93ba
000000b0: 1ba8 163b 473b 97bd 7fee 9bbd 9f1d ca3c
000000c0: 5f2c 5abc 0d62 9abd 5b27 803d 837c d2bd
000000d0: 1215 f3bd e148 d63d 8eae babd 77bb f33c
000000e0: 2cbf 96bd e37a 933d d0c2 1e3d e7ff aebd
000000f0: de1c 07be b134 18be df11 7e3d 7217 efbd

net.6.weight f4 [1, 64]
0.09728378 0.021721162 -0.09722834 -0.08231366 0.028787335 0.26494917 0.11462024 -0.057155818
-0.13433522 -0.008134328 -0.17688733 -0.05805019 -0.087423384 0.14703485 -0.08112346 -0.09896633
-0.18328859 -0.06428898 -0.035131138 0.06542072 -0.008800539 -0.14230876 -0.07987425 -0.12951046
-0.13454767 0.17277536 0.08278924 -0.09395296 0.057623148 -0.03827522 0.06992843 0.106391594
0.05804762 0.07488335 -0.10317021 0.0023075638 0.14157821 0.040461287 -0.04284578 -0.14370917
0.012596485 -0.07338241 -0.028689524 0.10098198 -0.12957035 0.17740948 -0.00510677 -0.14315787
0.115877114 0.06262973 0.09637196 0.036366712 -0.026317462 0.045984447 0.101334766 0.06735758
0.10143759 -0.08332419 0.13241237 -0.28987202 -0.0869528 -0.11559808 -0.22695668 -0.028216088
00000000: b83c c73d 94f0 b13c a71f c7bd 1094 a8bd
00000010: 6bd3 eb3c 6ba7 873e 04be ea3d 381c 6abd
00000020: 2c8f 09be d845 05bc f421 35be 09c6 6dbd
00000030: 080b b3bd 4e90 163e 0e24 a6bd dcae cabd
00000040: 01b0 3bbe f1a9 83bd abe5 0fbd 4cfb 853d
00000050: 2330 10bc 63b9 11be 1c95 a3bd 649e 04be
00000060: ddc6 09be 06ec 303e 688d a93d 696a c0bd
00000070: 4006 6c3d 7ac6 1cbd a336 8f3d d6e3 d93d
00000080: 57c3 6d3d 715c 993d e74a d3bd 7f3a 173b
00000090: e1f9 103e bcba 253d 0e7f 2fbd 7f28 13be
000000a0: 7d61 4e3c 8449 96bd 4b06 ebbc a4cf ce3d
000000b0: 17ae 04be d5aa 353e b156 a7bb fa97 12be
000000c0: fb50 ed3d 0444 803d aa5e c53d 43f5 143d
000000d0: b897 d7bc 305a 3c3d 9a88 cf3d c5f2 893d
000000e0: 83be cf3d dfa5 aabd 1c97 073e 1b6a 94be
000000f0: 4f14 b2bd b0be ecbd 5567 68be 6d25 e7bc
