abc_bcs/w_t0.pth (torch, 37923 bytes, 7 tensors)

net.0.weight f4 [64, 3]
00000000: 8d82 90be f33c f73e e8c0 113e 07a5 12be
00000010: 8168 3abd e75a b83d 67f0 85be a68a ea3e
00000020: 594e c5bd 9067 04bf 2d71 043f 4793 97be
00000030: c1a7 d33e 930e 27bf 2fb0 a33e 5d43 73be
00000040: 7d1d 0a3f 8675 613e 1204 2f3f a213 b43e
00000050: eb4a 473d a6a7 1a3f fb57 c6be 87c9 963e
00000060: 5721 4bbf a2bf a1be faa4 fe3c 4d60 0f3e
00000070: ad80 de3e c22a 9d3d 97e2 153f b426 87be
00000080: 3d2e c1be d895 63be 6c48 dfbe 0149 903d
00000090: dad0 3bbf 31b6 3abe ee0b 1abd 0e27 043f
000000a0: ecc7 c4be fa07 76bd 05f4 46bd 8a1c 143f
000000b0: 6e5d 00bf 7a55 4b3e b7b1 1abe 4c62 63be
000000c0: 4a0f 28bf 167a 99be 188b 45be 1db0 333f
000000d0: 3547 1a3e 22bf 923e 76be d5bb 66f9 f3be
000000e0: 34ed 80bc 2ed6 06bf 99e9 a23e 5ca5 7bbe
000000f0: 72c8 963e 8a05 c3be 586b a7be c629 a73e
00000100: cf60 d93e 8268 e83e 8eb9 4d3f 23cd 36be
00000110: 3ff5 683e 2c6c b6be a6c5 953e 9042 faba
00000120: 1925 bebe 12f2 0ebe 9c78 c9be 2ab6 803e
00000130: 0783 013f 498e 51be 7bb6 ebbe c20b 943e
00000140: 08db 2a3e e4a8 60bd 289f fabe 770c 46be
00000150: d235 423f 0b69 183e 1a23 633e fc25 21bf
00000160: 7fdf b3be fa8e 8abb 5aae cbbd 0e9e a6bd
00000170: a7b1 c8bd a5f7 05bf 7feb 1c3f 6466 923e
00000180: b3ce 743e 574b 513e e5b8 ed3d 6f5d 273e
00000190: dbb4 4c3e 612e 813e 3854 1e3f c05e dbbe
000001a0: 0284 5bbe 0e59 1c3f edb9 fabe 24a9 8b3e
000001b0: 1e4e acbd 7550 cbbe 8403 04bf e034 b7bd
000001c0: 07cc 95be 9a25 1ebd 0419 08be 46ed bcbe
000001d0: d47a 8fbe add6 fa3b be0f f23e 08aa 5fbe
000001e0: 48d6 17be 2129 d23e 3304 94be 1449 d8be
000001f0: e57e 09bf 7696 073e a0f3 c43e 66ef 423e
00000200: b4d1 bbbe 7bce 0ebf bce9 a6be d0f7 edbd
00000210: 51e1 a03e 3a4d 33bf 2edf 84be 0e32 243f
00000220: 00dd 91bd 0f57 033f fa03 45bf 9e82 aebb
00000230: 25e1 48be f7f8 5dbc 66b4 27bd e3dd b9be
00000240: 81f6 8fbe b569 24be 9cd0 e03e 3824 fdbe
00000250: fe72 87bd f5f8 af3e 51ce 2f3e 254e 1fbf
00000260: 5e4c 8e3e 1c8c 2dbd 1572 d7bd b128 cc3e
00000270: 4ede 563e a918 38bf d00f 993d 4dcc 1ebf
00000280: 4146 ddbe 7372 913c fa32 ecbe a4f3 d23e
00000290: f363 c03d 013d 0f3f 601a 2fbd 9c19 25ba
000002a0: 4828 debe f020 c7be 27f4 173f c9bb 33bf
000002b0: 4b0e 283e 60ed f03d bc65 963d 4f74 06bf
000002c0: 90a1 cdbe a6ba b23e 28f3 a9be 317e b03d
000002d0: cc04 483f 1c15 8c3c 9847 4c3d f110 883e
000002e0: 4f6c e0bd 4bbc b13c 80cd 30bf 0fbb 00bf
000002f0: deb4 133e 5d95 afbd 4138 8b3e 2d12 043f
-0.28224602 0.48288688 0.14233744 -0.14320765 -0.04550982 0.09001713 -0.26159975 0.45808905
-0.09634084 -0.51720524 0.5173519 -0.2960455 0.41338924 -0.65256613 0.31970355 -0.23756166
0.53951246 0.22017488 0.68365586 0.3517123 0.04865543 0.6041206 -0.38739 0.29450628
-0.7934775 -0.31591517 0.031084526 0.1400158 0.43457547 0.07674171 0.58548874 -0.26396716
-0.3773059 -0.2222513 -0.4360994 0.070451744 -0.7336556 -0.18233563 -0.037609033 0.5162209
-0.38433778 -0.0600662 -0.04857256 0.5785605 -0.5014256 0.19856825 -0.15106855 -0.22205466
-0.6564833 -0.29975957 -0.19291341 0.701906 0.15066226 0.28661448 -0.006522949 -0.47651213
-0.015738107 -0.5267056 0.31818846 -0.24574798 0.29449803 -0.38090163 -0.32699084 0.32649058
0.42456672 0.45392233 0.8036126 -0.17851691 0.22749804 -0.35629404 0.29252356 -0.0019093323
-0.37137678 -0.1395953 -0.3934983 0.2513898 0.50590557 -0.20464434 -0.4603766 0.2891522
0.16685116 -0.054848567 -0.48949552 -0.19340692 0.75863373 0.1488382 0.22181359 -0.62948585
-0.3513145 -0.00422847 -0.09945364 -0.08135615 -0.097995095 -0.52331 0.6129684 0.28593743
0.23906974 0.20438896 0.116075315 0.16344236 0.19990866 0.25230697 0.6184726 -0.42845726
-0.21437076 0.61073387 -0.48969975 0.27277482 -0.08413337 -0.3970982 -0.51567864 -0.08945632
-0.29257223 -0.03861008 -0.13290793 -0.36899775 -0.28023398 0.007654986 0.47277635 -0.21842206
-0.14827836 0.41047004 -0.28909454 -0.42243254 -0.5370925 0.1324099 0.3846712 0.19036636
-0.36683428 -0.55783814 -0.326002 -0.11619532 0.31421903 -0.70039713 -0.25951523 0.6413888
-0.071222305 0.51304716 -0.7695919 -0.0053256294 -0.19617136 -0.013548127 -0.040943526 -0.363021
-0.28117755 -0.16055949 0.43909156 -0.49441695 -0.0661373 0.34369627 0.17168547 -0.62228614
0.2779264 -0.042369947 -0.10519806 0.39874795 0.2098324 -0.7191263 0.07473719 -0.6203049
-0.43217662 0.017754769 -0.46132642 0.41201508 0.09394064 0.5595246 -0.042749763 -0.00062980666
-0.43390107 -0.38892317 0.5935692 -0.7020841 0.16411702 0.11764026 0.07343623 -0.5252122
-0.40162325 0.34908026 -0.33193326 0.08617819 0.7813232 0.01709991 0.049872965 0.26575425
-0.10958158 0.02169623 -0.6906357 -0.5028543 0.14424464 -0.08573411 0.27191356 0.51590234

net.0.bias f4 [64]
00000000: e115 833e 64cc b8bd a76d 56bd 9f29 d23e
00000010: d23e dbbd 278b 8f3e f631 e23c c7fd 97be
00000020: b5c0 f23e 6b08 cf3e a44f efbe 0bac 663d
00000030: 9fa6 97bd 86dc 28be 94f1 c13e ba85 e2be
00000040: 3e51 013f a912 883c d94c c53e 3370 cbb9
00000050: b1e6 0a3e aa21 223f 25d6 7dbe 2e98 c2be
00000060: dab6 183f 7d2f 1b3e 7d27 e83e 8159 3ebe
00000070: e3d0 8f3d c252 323e 68d3 cc3e 3d97 86bd
00000080: ffe0 93be 7ebc b9be 57bd 8c3e 3401 c7be
00000090: 3014 10bf d65c a5be 3e43 e7be 1aa1 993e
000000a0: b6d5 dbbe de7c 993e 1628 cbbd 06e3 003f
000000b0: d787 033f b5ea 733d 69c1 053e ff93 98be
000000c0: 7d2f 92be 6088 febe 3b86 b63d 7111 ed3e
000000d0: c4f7 903d 19ba 22bd a974 a9be 484e 7abe
000000e0: 05d5 fb3d 0f42 c93e 445e 563c d717 ae3e
000000f0: 1d8c 3f3e ea8b dfbe 6d10 6d3d 9abc debe
0.2560263 -0.090233594 -0.052350666 0.4104738 -0.107053414 0.28035852 0.027611714 -0.29685804
0.4741265 0.4043611 -0.46740448 0.056316417 -0.07404827 -0.16490373 0.37879622 -0.4424265
0.5051459 0.01661046 0.38535193 -0.00038802772 0.13564564 0.6333262 -0.24788721 -0.3800673
0.5965401 0.15154834 0.45342627 -0.1858883 0.07022264 0.17414382 0.4000504 -0.06571815
-0.28882596 -0.3627662 0.27488205 -0.38868105 -0.56280804 -0.3229739 -0.4516849 0.30005723
-0.42936486 0.2997808 -0.09919755 0.5034641 0.5137915 0.059550006 0.13062061 -0.29800412
-0.28551856 -0.4971342 0.08912321 0.4630237 0.070785075 -0.039728258 -0.33096817 -0.24443924
0.122964896 0.3930821 0.013083998 0.34002563 0.18705793 -0.43661433 0.057876993 -0.43503267

net.2.weight f4 [64, 64]
00000000: 23ff c03c e84d ffbd 8bee 40be 2cc4 56be
00000010: e6dc 423e 64f0 863d bf5a b7b9 6bbc 7f3e
00000020: 10fe 47be 7188 0b3d 9809 123e 5e2d ecbc
00000030: 3710 2a3d 7c54 c23d 6b44 4ebd 0ca0 033e
00000040: e33f 26be 17ab 323d d86c 30bd cd8c e1bd
00000050: 9bf7 da3d 0c48 c1bd 5018 063e d31d f9bc
00000060: bc7a a83b f296 af3c cb58 0abe bb65 00be
00000070: f50d 1dbd 7c5c 083d 84aa 9fbd 0b98 cebd
00000080: dac3 fdbc 85c8 733d b113 483e 84c2 223d
00000090: 362f 72b9 ba9b 05be 245b 8c3d c6b9 793d
000000a0: 12dc 5d3d 8dd6 dd3c 9783 253e c82c 89be
000000b0: f09b c83d afc1 173d e5d6 a7bd 80a7 6ebb
000000c0: dc86 34be 1a42 233d 8d7e 5abc 8424 a43d
000000d0: 2040 f83d a98b c23d dfac 48be a9cb a03e
000000e0: 69ce c5bd a67d 0dbe ae6a b63c f89b ef3d
000000f0: c95a 713c 35b9 b73d 4691 76bd 6b43 e9bd
00000100: e026 913d 5ff5 e43d 6e98 7a3e f51d 93bd
00000110: d61a 28be 7587 e53d 95d6 f0bc 96cc 8f3c
00000120: 8a7d 24be aef1 c7bd 9b64 f03d 9b56 f13c
00000130: 140f 05be 4b18 32bd 992a 213d c56f 403d
00000140: 5fd1 65be ce90 83ba cfa9 4ebe 6633 053e
00000150: a25a 24be 624d 443a 3b27 a63d bbcd a13d
00000160: 0003 53be e727 33bd a151 37bd 845e 913c
00000170: 90c1 2d3c a6cb 4abd a931 f7bc 30ec 373c
00000180: f6bb 903e 1782 5a3e d884 0bbd d3b5 593c
00000190: 1145 de3d 84f7 e9bd c9ac 973a 4206 1c3e
000001a0: d2ae 403a 7df2 29be c1d3 4a3e 6244 97be
000001b0: d965 8ebe 1dd0 13be dfc4 003b c5e3 853d
000001c0: 5746 503d 7f27 d13d 2716 49be 7b22 4cbe
000001d0: 2c35 4dbe 1330 66bd 3dc7 6c3e f24f 8dbd
000001e0: 235c 59be d9f4 b1bd 5a37 953d 2c15 9cbc
000001f0: c038 c2bd 197b 4cbd 3eab a0bc 9c80 983e
00000200: 227d 1abd 975f 4d3e 36e3 a03c 7e1d 2d3e
00000210: fabc 47be 6210 063e 9018 72bd 02ec 88be
00000220: 3a83 6f3e 9b0d edbd 20af 6bbe 2326 27bc
00000230: c6bf 013e 563a 69be 7f2a df3d 087a 07bc
00000240: 6f0a 873e add0 4cbd 87aa c33d f253 353e
00000250: b709 e7bd 0393 27bd 871a d2bd 4c2c a0bd
00000260: bc1a ef3d 64e0 493d 2d53 983d edde 28bb
00000270: 2be7 dcbd df0e 363d 8008 9bbc 17d0 523e
00000280: 67c6 2cbe fda9 bf3c ad6f 05bc 6852 043c
00000290: bf18 b2bd b608 6e3d 6336 47bd b4f4 2e3d
000002a0: ace8 033e f9c9 f43d a3a0 95be 3168 a13e
000002b0: a59e ff3c fa03 5f3d adda 053e 1103 c2bc
000002c0: 7fb6 d23c cfdb c7bd 9429 90bc 3807 af3d
000002d0: 821f 0dbe f061 e3bd 28c0 2e3e 8f02 7cbe
000002e0: 1d97 103e 3e16 8c3e a141 d2bd 762e 69bd
000002f0: 8c15 8dbd 5c7d 40be 5f27 db3d 1749 1b3d
00000300: 941b 613c 5d4a c8bc 4f13 ca3d 887d f63d
00000310: fec2 30be 579e 1dbd 9444 273e 193c 1dbe
00000320: b9c0 03be f590 a33d 100f 50be b48e 893c
00000330: 6a76 f2bd dc6c 2cbe b205 9abc c047 76bc
00000340: b26c bf3d ce3d 88bd 1d00 06bc eabd bcbc
00000350: 9166 01be 27bb c8bd 1e69 9a3d 7edc 033e
00000360: 0398 acbd 7eb1 2c3d a095 a33d 7ced d6bd
00000370: 92d4 3e3e f4b8 c9bb af28 243d 0373 923d
00000380: af3d 95bd ca1e f13c a150 d03c a37f 13be
00000390: aa6d 963c 3d0a 793d 76a5 573d 1cc4 74bd
000003a0: d997 2a3e 6247 0abe 5917 11be 3893 b93d
000003b0: 19cf 1cbe 53a6 3e3d a1e8 443d 1876 a83c
000003c0: b602 88bd b98e a43c 94aa b3bd 2909 27be
000003d0: 8ad3 83be 5c51 afbd 9670 933d 10de 0fbe
000003e0: f38a 1b3e 933d 5d3e a6b7 913d fab6 8cbd
000003f0: 9404 6bbd 7fbc b6bd a3b7 43be 0fe9 ce3d
0.023559159 -0.12466031 -0.18840997 -0.20973271 0.19029579 0.065888196 -0.0003497209 0.2497422
-0.19530511 0.034065668 0.14261472 -0.028830227 0.04151937 0.0948877 -0.050358217 0.12854022
-0.16235308 0.043620195 -0.04307255 -0.11013184 0.10691758 -0.0943757 0.13095212 -0.03040973
0.005141584 0.021434281 -0.13510434 -0.12538807 -0.03834339 0.033291325 -0.07796195 -0.10087594
-0.030977178 0.059517402 0.19538762 0.039736286 -0.00023096506 -0.13047686 0.06853321 0.060968183
0.054164954 0.027079845 0.16163479 -0.26791978 0.09795368 0.037049945 -0.08195285 -0.0036415756
-0.1762957 0.03985796 -0.013335836 0.08014777 0.12121606 0.09499294 -0.19597195 0.3140538
-0.0965851 -0.13817462 0.022267666 0.116996706 0.0147311175 0.08970872 -0.060197137 -0.11389812
0.07087493 0.11179613 0.2447221 -0.07183448 -0.16416487 0.11207477 -0.029399196 0.017553609
-0.16063514 -0.097628936 0.11737939 0.029460242 -0.12994033 -0.0434802 0.039347265 0.04698159
-0.2244315 -0.0010037662 -0.20181964 0.13007888 -0.16050199 0.00074883376 0.08112951 0.07900568
-0.20606613 -0.043739226 -0.04475558 0.017745264 0.010605231 -0.04951062 -0.030175047 0.011225745
0.28268403 0.21338688 -0.034062237 0.013287979 0.10853017 -0.11424163 0.001157188 0.15236762
0.0007350269 -0.16596408 0.1980734 -0.2954436 -0.2781208 -0.14434858 0.0019648594 0.06537584
0.05084833 0.102126114 -0.19637357 -0.19935028 -0.20039815 -0.05619819 0.23122878 -0.06900014
-0.21226554 -0.08689279 0.07285948 -0.019053064 -0.094834805 -0.049922083 -0.019612905 0.2978562
-0.037716992 0.20055996 0.019639593 0.16905782 -0.19505683 0.13092187 -0.059105456 -0.2674256
0.23389903 -0.11574861 -0.23016024 -0.010201964 0.12670812 -0.2277616 0.10896777 -0.008268841
0.26375148 -0.050003696 0.0955401 0.17707804 -0.1128115 -0.040911686 -0.10258966 -0.07820949
0.11675021 0.04928626 0.074377395 -0.002576764 -0.10786279 0.044447776 -0.018924952 0.20587192
-0.1687256 0.023396486 -0.008144301 0.008076288 -0.08696126 0.058113776 -0.04863585 0.042713836
0.12881726 0.11952586 -0.2922412 0.31524804 0.031203577 0.05444715 0.130717 -0.023683103
0.025721787 -0.09758722 -0.017597951 0.08546299 -0.1378155 -0.111026645 0.1706549 -0.24610351
0.14120145 0.2736072 -0.10266424 -0.056929074 -0.06888875 -0.18797821 0.10700869 0.0379115
0.013739485 -0.024449522 0.09866964 0.12035662 -0.17261884 -0.038481083 0.16334754 -0.15354957
-0.12866487 0.07986633 -0.20318246 0.016791679 -0.11838992 -0.16838402 -0.018801544 -0.015031755
0.09346904 -0.06652413 -0.008178738 -0.023039777 -0.12636782 -0.098013215 0.07539581 0.1287708
-0.084274314 0.042161457 0.07987523 -0.10494515 0.18635777 -0.0061560813 0.04007786 0.07150843
-0.07287156 0.029433627 0.025429072 -0.14404158 0.018362839 0.06080078 0.05264803 -0.059757337
0.16659488 -0.13503793 -0.14169063 0.09061283 -0.15313376 0.046545338 0.048073415 0.020564124
-0.06641142 0.020087587 -0.087727696 -0.16312088 -0.2574733 -0.0856044 0.071992084 -0.14049554
0.15189724 0.2160552 0.07115106 -0.068708375 -0.057377413 -0.089226715 -0.1911302 0.10103046

net.2.bias f4 [64]
00000000: 213b aa3c 4341 febd cc7d 8abd fa77 2abe
00000010: af82 8c3d 3dd1 27be ccfe 7dbd c8b4 833d
00000020: 3230 89bd 0801 1ebc f7a4 04be 9d68 4fbd
00000030: b54f b2bc e63f 743d 58a2 9a3d e9fa 39bd
00000040: eaa0 8b3d 19ce febc fdd2 32be 95ec 2ebe
00000050: f315 06be 7c17 ec3d 5efe c53d f37e 02bd
00000060: 9d06 3dbe 4e17 c4bd 3d5f 4fbd 610d 80bd
00000070: 96a0 f4bd 6053 f13d bae1 453e cc0c 713d
00000080: 14d3 b13d 51d2 053e 1f4b 03be cf1e 293e
00000090: 0a93 cabc 14ac e43c ef26 583e 68a8 02bd
000000a0: f052 6abd 50d8 2d3e 5c36 023d b161 c3bd
000000b0: 9787 e73d b152 163e 8c1d dfbd 1862 b1bd
000000c0: 474a 003e ca4e 35be aa7c fe3b bdab 22bc
000000d0: 26e1 c23d adc4 f83b 44f5 123c 4774 79ba
000000e0: 7233 803d f22c 1dbe 8627 4e3c 6392 c93d
000000f0: f098 083e 5779 93bd 5b3a af3c a144 53bb
0.020780148 -0.124147914 -0.06762275 -0.1664733 0.068608634 -0.16388412 -0.06201057 0.06430966
-0.06698646 -0.009643801 -0.12953554 -0.050636876 -0.021766523 0.05963125 0.07550496 -0.045405302
0.06817801 -0.031104134 -0.17463298 -0.17082436 -0.1309431 0.11527917 0.09667657 -0.03185935
-0.18459554 -0.095747575 -0.050627936 -0.06252552 -0.11944692 0.11783481 0.19324389 0.058850095
0.08682838 0.1306851 -0.12821625 0.16515659 -0.024728317 0.027914084 0.21108602 -0.031898886
-0.057208 0.16977048 0.031790122 -0.095401175 0.113051586 0.14679982 -0.108943075 -0.08661288
0.12528335 -0.17705837 0.007766326 -0.009928641 0.095156 0.007591805 0.008969609 -0.0009515923
0.062598124 -0.15349177 0.012582665 0.09842374 0.13339591 -0.07200878 0.02139013 -0.003223695

net.4.weight f4 [64, 64]
00000000: 5441 d03d fee1 73bd d2ed 923d 4ab6 20bd
00000010: 8799 a2bd e1e6 c2bd f5f3 6c3d 8e4b 00be
00000020: c51c 4abe 99ab 473c ebac 06bb 4ba8 4cbc
00000030: 9e60 863e fec6 4f3e 42cd d03d 69c9 cdbd
00000040: 7abf 3dbe 3fe1 fe3d 1b6b c6bd c875 e8bd
00000050: a333 f1bc 9357 ca3d 6a88 f6bb 339a 983e
00000060: 651a 4abc a3a7 ee3d eb49 abbc fbbe 1fbe
00000070: aecd ae3b 651c acbd 3a6c 583e 203f 93bd
00000080: e722 29bd 3a06 233e 1a8f 5b3d 7de7 513e
00000090: 873d a53e 1908 393e d587 b8bb c13e e13d
000000a0: a696 babe 15db 8f3d 01f8 9b3d d08d 4abd
000000b0: 9667 6bbd 7893 df3c 05f5 3dbc 27bf e83d
000000c0: 2484 813d 5728 00be f0e2 b2bc a57b f23d
000000d0: b8a0 e0b9 54e5 4ebe d8a9 b93d 44b1 66bd
000000e0: 9bd4 87bd 4383 0bbe 9ff1 2f3c f85a 9cbe
000000f0: 0015 e4bc f8c7 46be d36a 97bd 1bb3 ff3d
00000100: e888 843d f7ab 72bd 3e98 2abe 676d 523d
00000110: d4ce 78bd d0b7 c3bd 1926 763d eda8 023e
00000120: 2702 353d 8c40 fd3c ce11 0cbe d176 723b
00000130: 9cc0 0c3e c13d 30be c513 ab3d cb53 b6bc
00000140: 1db0 693d 1312 b03d 3e76 8d3d a684 6ebe
00000150: ebab 2bbd d055 233e 103f 4f3e b2cc 09be
00000160: fa37 803d b54f 66bd 6b94 063e c41d 25be
00000170: 0ca5 9cbc c527 1a3e c905 d1bd 8826 10bd
00000180: 5d35 cf3c 8730 bf3d 8800 27be 8dfa c03d
00000190: 236b 2ebe 5331 53be 2dc3 2ebd 1def 893d
000001a0: d8ba 3a3e b54d c83d 5a67 583c fe52 8a3c
000001b0: 747e 3ebe 7d37 913b df3a b8bd c38e 1d3e
000001c0: df5f 3b3b cd37 6d3d 04d5 f03d 7475 74be
000001d0: 57b9 b03c ac28 e73d d09f 4abd 71af d6bc
000001e0: c834 c23d 9217 cfbc 1074 113e af02 073d
000001f0: 8a66 3f3a 001a abbd 77de 393d 68e7 33be
00000200: dc99 093d dfc8 66bd 6036 893d b3f1 0bbe
00000210: cfb2 c83d d75f 483d 7cbe 65bd 4b1d 61bd
00000220: 11be 3dbd 51c2 18be 5746 883c 231a 823d
00000230: f59e 793e 00ab 81bc 8d9f 8c3d 2264 853d
00000240: 4330 c23d 7b17 0d3c 45c1 1f3e 925e 7d3e
00000250: 7ac1 e4bb f831 0abd 8704 55bd 8e7b a9bb
00000260: 0318 e9bd 3ea1 953d 5f69 2bbe 2063 dcbc
00000270: 7bfb b1bd d70b 09be d3dd 673d 4914 aabd
00000280: 59f9 39bd 2b49 60bd a0c4 9b3d 60c3 db3d
00000290: ac5c 523d 1e42 df3d 4b6c b83d fd0f 953d
000002a0: 6695 acbd 5459 66bd 555d 6fbd 33f1 3fbe
000002b0: 3f9e 473c 5cf7 d2bd 17c6 abbd f60c 91be
000002c0: a3eb 8abc 7360 6dbd d7fc 543d ccd5 95bb
000002d0: 9acc 083d abb8 e5bd 5b5e fe3c 15c8 2e3e
000002e0: f4d1 00be 1f71 de3d a11e 12bd d7c6 373c
000002f0: 6d11 f1bd 8f06 9abd f07d 11bd 4599 e63d
00000300: 9e38 59be 49ad 4ebc adc2 7f3e 1e12 3a3e
00000310: 4342 08be 3dc8 ac3e 2e35 213d 58e3 7c3d
00000320: 9958 473c 23b6 b4bd a21f 833c 5bac 0abd
00000330: 6a49 01be 720d 513d a48d 64bc be89 63bd
00000340: 4058 c93c 0cc4 2ebe dab5 f13d 3df1 b1bc
00000350: 0dae 683c 2103 03be 9d75 b2be a4ec 803e
00000360: bddf ee3d 4ca9 c5bd fc71 5fbe 6ebc 2f3e
00000370: c0de d4bb 1db9 9bbd bbe1 e23c 7600 dbbc
00000380: 530e bb3d a456 7bbe d955 d7bc dd43 a4be
00000390: 2929 89bd 449a 983c f3fa aebd f90b 4dbe
000003a0: 712e 32bc 70d2 44bd eff3 3b3e e2f8 fabc
000003b0: 58df 603e f35d d4bd cd27 593e 5879 d23d
000003c0: e031 5ebe e81e 8dbd 2ad9 b2bd eefa 4c3e
000003d0: 4bc3 97be bd29 1abd bb0e 9fbd b58b c3bd
000003e0: 8cdb 5bbe 91ec 6d3e 34e4 f6bc 19d9 51bd
000003f0: 082b 503e d82d 7a3e e14b 75be d9cc b13d
0.1016871 -0.059541695 0.07174267 -0.039236344 -0.07939439 -0.09516693 0.057849843 -0.12528822
-0.19737537 0.012186908 -0.0020549844 -0.012491296 0.26245588 0.20290753 0.101954 -0.100481816
-0.18530074 0.12445306 -0.096883975 -0.1135059 -0.029443568 0.09879985 -0.007523586 0.29805145
-0.0123353945 0.11653068 -0.02090927 -0.15600197 0.0053345775 -0.08403853 0.21135035 -0.071897745
-0.04129305 0.15920344 0.05360327 0.20498462 0.32273504 0.18069495 -0.005631427 0.109982975
-0.3644306 0.070242085 0.07615662 -0.04945165 -0.057471834 0.027291998 -0.011594062 0.113645844
0.06324032 -0.12515388 -0.021836728 0.118399896 -0.00042844354 -0.20204669 0.09065598 -0.056321397
-0.06632348 -0.13624291 0.010738759 -0.30538154 -0.027842045 -0.1941222 -0.07393422 0.124853335
0.06471425 -0.05924603 -0.16659638 0.051373865 -0.06074412 -0.09556544 0.060094927 0.12759753
0.044191506 0.030914567 -0.13678667 0.003699709 0.1374535 -0.17211057 0.0835338 -0.022256752
0.05705272 0.085971974 0.069073185 -0.23292789 -0.041912 0.15950704 0.202389 -0.13456991
0.06260677 -0.05622836 0.13142554 -0.16124636 -0.01912167 0.15054233 -0.102061816 -0.035192996
0.025294 0.09335428 -0.16308796 0.09422789 -0.17033057 -0.20624284 -0.042666603 0.0673506
0.18235338 0.097804464 0.013208235 0.016885277 -0.18602926 0.0044316635 -0.08995604 0.1538649
0.002859108 0.057914544 0.117593795 -0.2387293 0.021572752 0.112870544 -0.049468815 -0.026206704
0.094827235 -0.025279794 0.1420443 0.032961544 0.0007301351 -0.083545685 0.045378175 -0.17568743
0.033593997 -0.05634391 0.06699824 -0.1366642 0.0979973 0.048919525 -0.056089863 -0.054959577
-0.04632384 -0.14917876 0.016635103 0.063526414 0.24377044 -0.01582861 0.068663694 0.065132394
0.094818614 0.008611555 0.1560107 0.24743107 -0.006981072 -0.03373906 -0.05200627 -0.0051721996
-0.11381533 0.07306145 -0.16739415 -0.026902735 -0.08690544 -0.13383423 0.056608032 -0.0830465
-0.045403812 -0.05475728 0.076058626 0.10730624 0.05135791 0.10901283 0.0900503 0.0727844
-0.08426933 -0.056237534 -0.058438618 -0.18744354 0.012183725 -0.10301086 -0.08387392 -0.283302
-0.016958063 -0.05795331 0.05199894 -0.0045726057 0.03339825 -0.11216863 0.031050852 0.17068513
-0.12580091 0.1086142 -0.03567374 0.011216841 -0.11770902 -0.07520782 -0.035520494 0.112597026
-0.21213004 -0.012614557 0.24976607 0.18170974 -0.13306527 0.3374652 0.039357357 0.06174025
0.012167119 -0.08823802 0.016006295 -0.033855777 -0.12625661 0.051038213 -0.013949785 -0.055551283
0.024578214 -0.17066973 0.118022636 -0.021721477 0.014201653 -0.12794162 -0.34855357 0.25180542
0.116637684 -0.096514314 -0.21820825 0.17161724 -0.0064962804 -0.07603667 0.027695527 -0.026733618
0.091335915 -0.2454477 -0.026286053 -0.32083026 -0.06697304 0.018628247 -0.085439585 -0.20024098
-0.01087533 -0.04805225 0.18354772 -0.030636255 0.21960199 -0.10369482 0.21206589 0.10277051
-0.21698713 -0.068906605 -0.08732827 0.20017597 -0.29641184 -0.03763746 -0.077664815 -0.095481314
-0.21470469 0.23234774 -0.030138113 -0.05123243 0.20328915 0.2443155 -0.23954727 0.0868165

net.4.bias f4 [64]
00000000: 2b3f 363c 1f34 bd3d f3f1 103c dc0b 3bbe
00000010: 2f0b 61bd 609c c23d cefc 713d 6c3d 0abe
00000020: cb46 0bbe ffac c8bd d82e 743d affe f6bc
00000030: 18bf ebbc 48e0 8b3d bc86 7f3d 8735 debd
00000040: 8fc5 a53d d63d ee3d 119b e33d 63c6 af3d
00000050: 212d 973d 2e73 2fbd 124a d4bd 70b8 fb3d
00000060: afee 59bc 622e 7cbd 1108 863d b912 efbd
00000070: 602f 27be 0079 943d fe7a 983d ba56 c6bd
00000080: 95e6 5a3c 4905 68bd 91ab a2bd 554b 12be
00000090: 8a5c cfbd 0cfd 0ebd f20c aabd 79c4 343d
000000a0: 3f87 b5bb b3e7 d2bc 8409 4b3d f68e 1d3e
000000b0: 57ca 893d 4d06 01be 9d90 61bd 7b32 063e
000000c0: 9eb7 143d 828c 9b3d a9f3 1b3e 062c 70bd
000000d0: 1bbf 9ebd 880d ca3d 6814 233e b04c e2bd
000000e0: 0d14 0bbe 69be b6bb 74f0 2e3c 77d8 0cbd
000000f0: 70c8 f6bd 42b1 ba3d d039 0d3e 6414 d73d
0.011123459 0.09238457 0.008846748 -0.18266243 -0.054942306 0.095024824 0.059078984 -0.13499993
-0.13601224 -0.097986214 0.059614986 -0.03015074 -0.028777644 0.06829888 0.062384352 -0.10850053
0.08094322 0.11632888 0.11113561 0.08582761 0.073816545 -0.042834453 -0.1036569 0.12291038
-0.0133015355 -0.06156767 0.06544507 -0.11673493 -0.16326666 0.072496414 0.07445334 -0.096845105
0.013360639 -0.056645665 -0.0794288 -0.1428655 -0.10125072 -0.034909293 -0.0830325 0.044132683
-0.005539804 -0.025745248 0.04956962 0.15386567 0.067280464 -0.1260006 -0.055069555 0.13105194
0.036307923 0.07595159 0.15229668 -0.058635734 -0.07751294 0.09865862 0.15925753 -0.11049783
-0.13581868 -0.005576898 0.010677446 -0.034386124 -0.12049949 0.091158405 0.13791585 0.10501936

net.6.weight f4 [1, 64]
00000000: dfd6 3b3e 8991 3d3e 4091 56be 4189 eabd
00000010: 5483 49be 17cb 57be fcaa 243e 86a9 d0be
00000020: 2d94 04be dab6 cb3d a14a b03e 25ad 68be
00000030: b083 17be 51f1 1e3e ee83 4f3e 049d 35be
00000040: 8996 223e 7e80 4f3e 19d0 2c3e d15a 9dbe
00000050: b351 1e3e 6513 bdbd 14e2 353e d75d 513e
00000060: 1f97 bf3e 0de7 773e 9108 2dbe 4e82 2cbe
00000070: 4af2 cfbe f8a4 fe3d bbb3 bf3d e177 33be
00000080: e90f 46be 893b e93d 52e6 34be 0b63 51be
00000090: 94ae a3be 97b1 103e a78b 373e 3caf 5a3e
000000a0: 9c93 3cbe 239c ccbd bf00 3dbe d0a9 ce3d
000000b0: 5dba 62be c247 82be 7b43 9e3e 3d85 1d3e
000000c0: eb8f 383e 7519 32be c92c 833d 68d8 413e
000000d0: 106e 11be 09b4 2a3e 7119 413e 38ec 47be
000000e0: 2b1c 28be 0732 563e 2022 703e fb17 85bb
000000f0: 2e99 48be 72d7 f53d 7e41 073e 7337 1c3e
0.18343686 0.18512549 -0.20953846 -0.1145196 -0.19679004 -0.21073566 0.1608085 -0.40754336
-0.1294715 0.099469855 0.34431937 -0.227223 -0.14796329 0.15521742 0.20265171 -0.17735678
0.15877737 0.2026386 0.16876258 -0.3073335 0.15460853 -0.09232215 0.17762023 0.20445953
0.37419984 0.24209233 -0.16897799 -0.16846582 -0.4061454 0.12433809 0.09360453 -0.17526199
-0.19342007 0.113883086 -0.17665985 -0.20447938 -0.3196913 0.14130245 0.17924367 0.21355909
-0.18415684 -0.09990718 -0.18457316 0.10090983 -0.22141404 -0.25445372 0.3091086 0.15382858
0.1802365 -0.17392524 0.064050265 0.18930209 -0.14202142 0.1667024 0.18857361 -0.19523704
-0.16416995 0.20917521 0.23450518 -0.0040616966 -0.19589683 0.120039836 0.13208577 0.15255527
