abc_bcs/w_t1.pth (torch, 37923 bytes, 7 tensors)

net.0.weight f4 [64, 3]
0	0x3aece3b9	0.0018073238
1	0x3eadd713	0.3395315
2	0xbdf498d5	-0.11943213
3	0xbf185cd2	-0.5951663
4	0x3e1c14ea	0.15242353
5	0xbd62cc5b	-0.05537067
6	0x3db7de9d	0.08978007
7	0xbec8e178	-0.3923452
8	0xbe3ae55a	-0.18251553
9	0x3f28356c	0.65706515
10	0x3eaa720c	0.33290136
11	0x3d8309d6	0.063983604
12	0xbde2de19	-0.11077518
13	0x3dad3ee3	0.0845926
14	0xbec94859	-0.3931301
15	0xbe2dfe55	-0.16991551
16	0x3e9aed2e	0.3025908
17	0xbee206e6	-0.44145888
18	0x3e884343	0.26613817
19	0xbf01c8f1	-0.5069724
20	0xbdb295c8	-0.08719975
21	0xbee80c83	-0.45322046
22	0xbc95a8b0	-0.018268913
23	0x3f2cd365	0.6751006
24	0x3f090401	0.53521734
25	0x3f081e11	0.5317088
26	0x3e722ee9	0.23650707
27	0xbdb37a58	-0.087635696
28	0xbed4364f	-0.41447684
29	0x3f005d92	0.50142777
30	0xbf3b0e63	-0.7306883
31	0x3dce9789	0.10087497
32	0x3e3bce5a	0.18340436
33	0xbf07af39	-0.53001744
34	0x3c8bf038	0.017082319
35	0xbed2f236	-0.41200417
36	0x3f130345	0.57426864
37	0xbf1eefb7	-0.62084526
38	0xbef93abe	-0.4867763
39	0xbe8e1f0b	-0.2775806
40	0xbed2752f	-0.4110503
41	0xbe79b705	-0.24386223
42	0xbd17130f	-0.03688341
43	0x3eab9992	0.33515602
44	0xbebf35dc	-0.3734578
45	0xbeef9a07	-0.467972
46	0xbd880e29	-0.06643326
47	0xbddab751	-0.10679496
48	0x3c25d540	0.010121644
49	0xbf36bb9d	-0.71380025
50	0x3e5420eb	0.20715682
51	0x3eac0e62	0.33604723
52	0xbeac747f	-0.3368263
53	0x3ea5f759	0.32415274
54	0x3dd24f05	0.10268978
55	0xbf48f815	-0.78503543
56	0xbef427ad	-0.4768652
57	0x3f0d215a	0.55129015
58	0xbf1cb73f	-0.6121711
59	0x3ea69450	0.32535028
60	0x3d00ea98	0.031473726
61	0x3eb5edcf	0.35532996
62	0xbd976b16	-0.07393472
63	0x3e475444	0.19465739
64	0xbee5de90	-0.44896364
65	0xbedabd1a	-0.42722398
66	0x3eb33356	0.35000104
67	0x3f273a81	0.65323645
68	0x3e59f2f4	0.21284086
69	0xbe788286	-0.2426854
70	0xbf30f7b2	-0.69127953
71	0x3ee2b324	0.44277298
72	0xbefc3117	-0.49256203
73	0x3eebc457	0.46048233
74	0xbe9134cc	-0.28360593
75	0xbed8c6d2	-0.42339188
76	0xbc828117	-0.015930695
77	0xbe4eb399	-0.20185699
78	0x3f1069db	0.5641152
79	0x3eaf9eaf	0.34300753
80	0x3e11f403	0.1425324
81	0x3ed2c9f3	0.411697
82	0xbe3d0a3b	-0.18460934
83	0xbe2062aa	-0.15662637
84	0xbe50fa26	-0.20407924
85	0xbe1ab6d5	-0.15108807
86	0xbf0caf50	-0.54955006
87	0x3f0657dc	0.5247781
88	0xbf16cd9b	-0.5890748
89	0x3e5f6540	0.21815968
90	0xbecaf62e	-0.39640945
91	0x3e8e0323	0.27736768
92	0xbeb17a12	-0.34663445
93	0xbf14dae6	-0.5814651
94	0x3f051d29	0.5199762
95	0xbc051833	-0.008123445
96	0xbe4c5b87	-0.1995679
97	0xbeaca9ef	-0.337234
98	0xbe43670c	-0.19082278
99	0x3f0d7ec4	0.55271554
100	0x3e80e9b5	0.25178304
101	0x3e5d3303	0.2160149
102	0x3ee7bfb4	0.45263445
103	0xbee722ac	-0.4514364
104	0x3e5cb2a3	0.2155252
105	0x3f2c48a9	0.6729837
106	0xbe9a5a73	-0.30147132
107	0xbd2ddd16	-0.042447172
108	0x3e41e4c7	0.18934928
109	0xbf0e271a	-0.55528414
110	0x3eb9cb78	0.36288047
111	0xbe3a7a5c	-0.18210739
112	0xbd4bf98c	-0.049798533
113	0xbed1954c	-0.40934217
114	0xbf39e0b8	-0.7260852
115	0xbe9c6a68	-0.30549932
116	0xbd2a48ec	-0.04157345
117	0x3daf3307	0.085546546
118	0x3f1062eb	0.56400937
119	0xbd61ea6f	-0.055155214
120	0xbe8482fc	-0.25881183
121	0x3e927e9f	0.2861223
122	0xbccc1be9	-0.024915652
123	0x3f46472d	0.77452356
124	0xbda96ecb	-0.08273085
125	0xbcc08fe9	-0.023506122
126	0x3f04f0e9	0.519301
127	0xbed8ba08	-0.4232943
128	0x3e06f1d4	0.13178188
129	0xbe966183	-0.2937127
130	0xbe90d99c	-0.28291023
131	0xbe7ac4fa	-0.24489203
132	0xbd826707	-0.06367307
133	0xbd24bcb0	-0.04021901
134	0x3f0d34f4	0.55158925
135	0x3ef88735	0.48540655
136	0xbee6c647	-0.4507315
137	0xbe235d4d	-0.1595356
138	0xbf416640	-0.75546646
139	0x3d8a1972	0.067431346
140	0x3e0787fb	0.13235466
141	0x3ee1b6b0	0.44084692
142	0x3e99aae1	0.30013183
143	0xbef3d9af	-0.47627017
144	0xbf3b0161	-0.7304898
145	0xbd613974	-0.054986432
146	0xbd8c5a95	-0.06853215
147	0xbf16528c	-0.58719707
148	0xbd87418a	-0.066042975
149	0x3ec2a98a	0.38019973
150	0xbf1d7de3	-0.6152021
151	0xbef4349c	-0.47696388
152	0xbd90e67f	-0.07075214
153	0xbe8ba2a4	-0.27272522
154	0x3d9d6b97	0.07686537
155	0x3e1c68e1	0.15274383
156	0xbe30aa30	-0.17252421
157	0xbf249810	-0.6429453
158	0xbdc5be81	-0.09655476
159	0x3e72c0a4	0.23706299
160	0x3eebef5a	0.46081048
161	0xbf11c47f	-0.56940454
162	0x3dbdddec	0.09270844
163	0xbea66ebc	-0.3250636
164	0xbe931057	-0.28723404
165	0x3e98e74e	0.2986397
166	0xbf11dd20	-0.56978035
167	0x3e6bc984	0.23026091
168	0x3e4523ad	0.1925189
169	0xbdef611f	-0.11688446
170	0xbecf3ae0	-0.40474606
171	0xbf121146	-0.5705761
172	0x3e8cdccc	0.27512205
173	0xbd617c6a	-0.05505029
174	0xbd95dc0f	-0.073173635
175	0x3edce6c4	0.4314481
176	0xbe3f880b	-0.1870424
177	0x3e5c7ab7	0.21531187
178	0x3f161189	0.58620507
179	0xbe6e262d	-0.2325675
180	0xbf2b26eb	-0.6685626
181	0xbdf7798c	-0.1208373
182	0x3f062024	0.5239279
183	0x3d486775	0.04892679
184	0x3e75163a	0.2393426
185	0x3eccb4ce	0.39981693
186	0xbf2e4f8c	-0.6809013
187	0xbe8a8b1d	-0.2705926
188	0xbc3a3ff9	-0.011367791
189	0xbe5468e3	-0.20743136
190	0xbed61030	-0.41809225
191	0xbe8a6abe	-0.27034563

net.0.bias f4 [64]
0	0x3e24ecc4	0.16105944
1	0x3e61b48f	0.22041534
2	0xbf13c153	-0.57716864
3	0xbef603c2	-0.48049742
4	0xbd80717a	-0.06271644
5	0x3dd7e873	0.10542383
6	0x3e4f343a	0.20234767
7	0xbe4d2c7b	-0.20036499
8	0xbebad446	-0.36490077
9	0x3ed244de	0.41068166
10	0x3f0a9931	0.5414
11	0xbef34165	-0.4751083
12	0x3eaeffcc	0.34179533
13	0x3f0be730	0.5464964
14	0x3edb113b	0.42786583
15	0x3f0fdcfd	0.56196576
16	0x3dc63899	0.09678764
17	0xbf0d3b66	-0.5516876
18	0xbf1ad7c8	-0.60485506
19	0xbe2d1d02	-0.16905597
20	0xbe30b2d8	-0.17255723
21	0xbe820d8b	-0.25400957
22	0xbf17803d	-0.5918005
23	0x3e08f407	0.13374339
24	0x3ec96aaa	0.3933919
25	0x3e9add35	0.30246893
26	0xbd7070ed	-0.058701444
27	0xbeaf7ea2	-0.342763
28	0xbdcf98bb	-0.10136553
29	0xbe1ccd01	-0.15312578
30	0x3ec185d2	0.3779741
31	0x3e24844b	0.16066091
32	0x3db67948	0.08909851
33	0x3e8a9952	0.270701
34	0x3e7699de	0.24082133
35	0xbed11bb8	-0.4084146
36	0x3d99774d	0.07493458
37	0xbde165b2	-0.11005725
38	0x3de1ef38	0.110319555
39	0xbe32e713	-0.1747096
40	0x3ec8d240	0.39222908
41	0x3eafbce4	0.343238
42	0x3eb4e72b	0.35332617
43	0x3ed41a84	0.4142648
44	0xbed7e5fd	-0.42167655
45	0xbe2be9ac	-0.16788357
46	0xbebd99c2	-0.3703137
47	0x3e998201	0.29981998
48	0x3e8ef501	0.27921298
49	0x3ce199df	0.027539192
50	0x3e06dbd7	0.131698
51	0x3d731330	0.05934447
52	0x3ec6fc55	0.3886439
53	0x3ed16929	0.40900543
54	0x3f050d74	0.5197365
55	0xbec3dce3	-0.3825446
56	0x3efb55de	0.4908895
57	0x3e572c90	0.21013093
58	0x3f0cdecd	0.55027467
59	0xbd8e54f2	-0.06949796
60	0xbec96c3f	-0.39340398
61	0x3ec8a512	0.3918844
62	0x3dad4b2f	0.08461606
63	0x3ecc817e	0.39942545

net.2.weight f4 [64, 64]
0	0xbda2aa6f	-0.07942664
1	0xbd361d1d	-0.04446136
2	0xbdb2e808	-0.08735663
3	0xbe20e423	-0.15712027
4	0xbdbff0eb	-0.09372123
5	0xbda6e184	-0.081484824
6	0x3d71543a	0.058918215
7	0x3db453fc	0.08805081
8	0x3d9daf59	0.076994605
9	0x3e24ba15	0.1608661
10	0x3c9fb14a	0.019493718
11	0xbd99996a	-0.074999645
12	0xbd2bec6c	-0.041973516
13	0x3e3ad8c8	0.18246758
14	0x3d9c3d66	0.07628898
15	0x3e14f2ee	0.14545795
16	0x3dd0d9fd	0.10197828
17	0x3db8cc27	0.09023314
18	0x3b869439	0.004107025
19	0x3db1f88a	0.08689983
20	0xbdb92d78	-0.090418756
21	0x3d9e788a	0.07737835
22	0xbc3ef80c	-0.011655819
23	0x3e10eec6	0.14153585
24	0x3db1933e	0.08670662
25	0x3d2683f7	0.040653195
26	0xbdf072dc	-0.11740658
27	0xbd439e0a	-0.04775814
28	0x3d5d8934	0.054085925
29	0xbd9b1118	-0.0757162
30	0x3df72bd3	0.12068906
31	0xbde6936f	-0.112585895
32	0x3cfad9ef	0.030621497
33	0xbca450ce	-0.020058062
34	0xbd27e16d	-0.040986467
35	0xbdf4e09c	-0.11956903
36	0x3e1010e3	0.14068942
37	0xbd6d8667	-0.057989504
38	0x3ddec44e	0.10877286
39	0x3d6999e4	0.057031527
40	0xbde6a963	-0.11262777
41	0x3c666810	0.014062896
42	0xbc8a297d	-0.016865486
43	0x3e437a11	0.19089533
44	0xbdf236b3	-0.11826839
45	0xbd958cdc	-0.073022574
46	0x3d42e12f	0.047578033
47	0xbd94d6cb	-0.07267531
48	0x3d16cb13	0.03681476
49	0x3e588173	0.21143131
50	0x3dcd5073	0.1002511
51	0xbcccd21f	-0.025002537
52	0x3e2d6417	0.16932712
53	0x3dfd02c9	0.12354047
54	0x3e0686a0	0.13137293
55	0xbd05992e	-0.032616787
56	0xba20ec43	-0.00061387214
57	0xbdbfc7ab	-0.093642555
58	0xbdeec522	-0.11658694
59	0x3dbc867e	0.0920534
60	0xbdb1ccbb	-0.08681627
61	0xbd8cd937	-0.06877368
62	0xbdd299f3	-0.1028327
63	0x3daaec8a	0.083458975
64	0xbbeef7d3	-0.0072927265
65	0x3e0fe684	0.14052778
66	0xbd3ce5bd	-0.046117533
67	0x3e183b54	0.14866382
68	0x3bf7c4ea	0.007561316
69	0xbc42ba77	-0.011885277
70	0xbdbb3ea4	-0.09142807
71	0xbb308696	-0.0026935688
72	0xbcaeb1b8	-0.021324977
73	0x3dd23ed6	0.10265891
74	0xbdcc6adf	-0.099813215
75	0x3de855e1	0.11344505
76	0xbe0e6164	-0.13904339
77	0xbe21eda5	-0.1581331
78	0x3dde82bd	0.1086478
79	0xbc8c14aa	-0.017099697
80	0xbda8ec62	-0.082482114
81	0xbdf765ef	-0.12079989
82	0x3cefdaa3	0.029279059
83	0xbd977c41	-0.073967464
84	0x3da191c4	0.07889131
85	0xbcd76ca6	-0.026296925
86	0x3e0a9985	0.13535126
87	0xbe166203	-0.14685826
88	0xbd1fad69	-0.038983736
89	0x3d914d0a	0.07094772
90	0x3c322f1c	0.01087549
91	0x3dc495f9	0.095989175
92	0xbd2b0f03	-0.041762363
93	0x3d136d82	0.035993107
94	0x3d218a58	0.039438576
95	0x3d9e3f1b	0.0772688
96	0x3d10ddc4	0.035367742
97	0xbcf3c4d5	-0.029756943
98	0x3cc3b1ec	0.02388855
99	0x3e1b31d0	0.1515572
100	0xbd4b8804	-0.04969026
101	0xbd78a4d9	-0.060704086
102	0x3da9e53e	0.082956776
103	0x3e4fbda0	0.2028718
104	0xbc192eea	-0.009349564
105	0x3d73a440	0.059482813
106	0xbdcebdbc	-0.10094783
107	0xbdff8999	-0.124774165
108	0xba3f5f5c	-0.00073002814
109	0xbd82894c	-0.063738436
110	0x3cca3644	0.024684079
111	0x3ccb3815	0.024807015
112	0xbd663c1c	-0.05620967
113	0xbdd3ebe6	-0.103477284
114	0x3c887027	0.01665504
115	0x3d67ce47	0.056593206
116	0x3d0d31a5	0.034471173
117	0x3ded5bb7	0.11589759
118	0x3da35720	0.07975602
119	0xbe05f561	-0.13081886
120	0xbdbb1311	-0.09134496
121	0xbb4cb99a	-0.0031238557
122	0x3e101925	0.14072092
123	0xbdb2ede3	-0.087367795
124	0x3db82d24	0.08992985
125	0x3ddcac33	0.10775032
126	0xbd068684	-0.032843128
127	0xbe23ad01	-0.15983965
128	0x3da89b7f	0.082327835
129	0xbe9107c4	-0.28326237
130	0x3d3b76ca	0.045767583
131	0x3da9b70c	0.082868665
132	0x3dc9fab8	0.09862274
133	0x3d4729d1	0.048623864
134	0xbde410e6	-0.111360356
135	0xbd660c69	-0.05616418
136	0xbd45d8d7	-0.048302498
137	0x3da55200	0.08072281
138	0xbe5acd70	-0.2136743
139	0x3d88e6ea	0.06684668
140	0x3c3c9c04	0.011511806
141	0xbbb7f72f	-0.0056141834
142	0xbd7a3734	-0.061087802
143	0x3d8a50ce	0.067536935
144	0x3d7657a9	0.060142193
145	0xbd96daff	-0.07365989
146	0x3d8e782c	0.06956515
147	0xbbb627de	-0.0055589518
148	0xbc081034	-0.008304644
149	0xbdc5dde0	-0.0966146
150	0x3d832cdb	0.0640504
151	0xbddd419b	-0.10803529
152	0xbd501b55	-0.050807316
153	0xbe8cc427	-0.27493402
154	0xbd628917	-0.05530652
155	0x3dd64a7f	0.10463428
156	0xbe0b5842	-0.13607886
157	0x3d483df2	0.0488872
158	0x3c08f617	0.008359454
159	0xbd8ab3a1	-0.06772543
160	0x3d1b51ff	0.037919994
161	0xbdf80d73	-0.1211194
162	0x3d3b2507	0.04568961
163	0x3d4a4c47	0.04938915
164	0x3d3e9e44	0.046537653
165	0x3dbba4f7	0.09162324
166	0xbdaf7d60	-0.08568835
167	0x3e079489	0.13240255
168	0x3d2451b0	0.040116966
169	0xbc698b33	-0.014254379
170	0xbda8625b	-0.08221885
171	0xbc1333d2	-0.008984523
172	0x3c81db0d	0.015851522
173	0xbcb30d03	-0.02185679
174	0x3dbeb28f	0.09311401
175	0x3da0cb66	0.07851295
176	0xbda478a7	-0.08030825
177	0xbe064d37	-0.13115393
178	0x3dd88852	0.10572876
179	0xbbef62fd	-0.0073055015
180	0xbdeab6c9	-0.11460645
181	0xbc134cce	-0.00899048
182	0xbcceac3e	-0.025228616
183	0xbd8e3cbc	-0.06945178
184	0x3c60474c	0.0136888735
185	0xbe290edf	-0.16509579
186	0x3e09c3de	0.13453624
187	0x3df73771	0.120711215
188	0xbd18f5a6	-0.037343644
189	0x3d985e11	0.07439817
190	0xbce4523f	-0.02787125
191	0xbd829c72	-0.06377496
192	0xbca7002f	-0.02038583
193	0xbcc504a3	-0.024050063
194	0x3d91b21e	0.07114051
195	0xbe2cbdd5	-0.1686929
196	0x3d4a7d8f	0.04943615
197	0x3b4621b1	0.0030232484
198	0x3d6f01eb	0.05835144
199	0x3d891568	0.06693536
200	0x3d287854	0.04113038
201	0xbd3d6a91	-0.046244208
202	0xbb4efebf	-0.0031584946
203	0x3cc84fc2	0.024452094
204	0x3de2aeef	0.11068522
205	0x3e281a95	0.1641639
206	0xbdf2aeb5	-0.11849729
207	0x3d535be5	0.05160131
208	0x3d09e360	0.033664107
209	0x3da22b23	0.07918384
210	0x3de148e7	0.11000233
211	0xbd498e92	-0.04920823
212	0xbd873500	-0.06601906
213	0x3d95dc09	0.07317359
214	0x3d0147a8	0.031562477
215	0x3da24c3e	0.07924698
216	0xbd420ff8	-0.04737851
217	0xbdf68a99	-0.12038154
218	0xbe10f6b1	-0.14156605
219	0x3d3e69f3	0.04648776
220	0x3e01c6de	0.12673518
221	0x3e559946	0.2085925
222	0xbe024ad3	-0.12723856
223	0xbc291010	-0.010318771
224	0x3c91ea84	0.017812021
225	0x3d5a194d	0.053246785
226	0x3cf64467	0.030061914
227	0x3c9c45cd	0.019076252
228	0x3d8615fb	0.06547161
229	0xbc9263eb	-0.01786991
230	0x3c267497	0.010159633
231	0xbd2e289d	-0.0425192
232	0xbe02cf41	-0.12774374
233	0xbc2250d9	-0.009906971
234	0x3be308cf	0.0069285403
235	0x3d0a1ba9	0.033717785
236	0x3d3cdd5b	0.04610954
237	0x3e423825	0.1896673
238	0xbd119fd0	-0.0355528
239	0x3c9ab32f	0.01888427
240	0x3d80b08c	0.06283674
241	0xbe2d6a61	-0.16935112
242	0x3d55c20c	0.05218701
243	0xbe728117	-0.23682056
244	0x3e0d5e1f	0.13805436
245	0x3dbac2b1	0.09119166
246	0x3d89d750	0.06730521
247	0x3e22b08f	0.15887664
248	0x3d56a37d	0.05240201
249	0xbe679a08	-0.22617352
250	0x3c01fffb	0.007934566
251	0xbdffb0ed	-0.12484918
252	0x3e1bf2ac	0.1522929
253	0x3cc75999	0.024334716
254	0xbc2070a9	-0.009792485
255	0x3d0e5967	0.03475323

net.2.bias f4 [64]
0	0xbc1008d4	-0.008791167
1	0x3dcc880d	0.09986887
2	0x3cd53722	0.026027266
3	0x3dd5cbd3	0.10439267
4	0x3df063e7	0.11737805
5	0x3c8d4668	0.017245486
6	0xbda40284	-0.08008292
7	0x3cad2ce9	0.021139579
8	0xbd419350	-0.04725963
9	0x3b15bc91	0.002284799
10	0x3daded8f	0.08492576
11	0x3cfa2692	0.03053597
12	0xbc8c7c07	-0.017148985
13	0x3dab812d	0.08374248
14	0x3db46248	0.08807808
15	0xbe041799	-0.12899627
16	0xbd72ea70	-0.05930561
17	0xbde7846a	-0.11304553
18	0x3c287aa8	0.01028315
19	0x3e38e12a	0.18054643
20	0x3cdbf7a1	0.026851477
21	0x3d9d9c21	0.07695795
22	0x3d5c06f5	0.053717572
23	0x3d9aadd8	0.07552689
24	0xbdb10797	-0.08644026
25	0xbdb6d38a	-0.089270666
26	0xbc776adb	-0.01510116
27	0x3d52adaf	0.05143517
28	0x3d8fcfec	0.0702208
29	0xbda22c38	-0.0791859
30	0x3d833148	0.06405884
31	0xbd33eea7	-0.04392877
32	0xbcab1e54	-0.020888485
33	0x3ca6898a	0.020329256
34	0xbd498d16	-0.049206816
35	0x3da70678	0.08155531
36	0x3daef794	0.085433155
37	0xbdc755b7	-0.09733146
38	0xbcec8123	-0.028870171
39	0x3d1ab15e	0.037766807
40	0xbe0ce2fe	-0.13758466
41	0xbe28315c	-0.16425079
42	0x3d5eb0bd	0.05436777
43	0xbe2d2355	-0.1690801
44	0x3e1f6b24	0.15568215
45	0x3e037cec	0.12840623
46	0x3dc9de96	0.09856908
47	0xbdb9ebc3	-0.09078171
48	0xbe1a3716	-0.15060076
49	0xbdb02275	-0.08600322
50	0xbd6ab7a8	-0.057304054
51	0xbd86aafc	-0.065755814
52	0x3e10be87	0.1413518
53	0xbdbe360d	-0.09287653
54	0x3d821b27	0.06352835
55	0xbddaf51a	-0.10691281
56	0x3e134358	0.14381158
57	0x3d08086d	0.03321116
58	0xbdbbb588	-0.09165484
59	0x3de31497	0.110879116
60	0x3e1d0b13	0.15336256
61	0x3d8bdfce	0.06829797
62	0x3d3a9431	0.045551483
63	0x3bfc46ce	0.0076988703

net.4.weight f4 [64, 64]
0	0xbcd90fff	-0.026496885
1	0x3e00edd2	0.12590721
2	0x3b0043bb	0.001957162
3	0x3ce9c13b	0.028534522
4	0xbdcdab8f	-0.10042488
5	0xbe25bbc6	-0.16184911
6	0x3ded7776	0.11595051
7	0x3dedbaac	0.116078705
8	0x3d864df9	0.06557841
9	0xbca130bf	-0.019676564
10	0x3e17fdb4	0.14842874
11	0x3db2042b	0.08692201
12	0x3cb81cf5	0.022474745
13	0x3d610418	0.054935545
14	0xbe17b190	-0.14813828
15	0x3cb236f5	0.021754721
16	0xbda6b2f1	-0.08139599
17	0x3d74507d	0.059647072
18	0x3de3121e	0.1108744
19	0xbd9474ad	-0.07248817
20	0x3d482e8c	0.048872516
21	0xbd091769	-0.03346959
22	0xbe311277	-0.172922
23	0x3df64ea1	0.12026716
24	0xbdc8219c	-0.097720355
25	0x3dbe378e	0.0928794
26	0xbd36f337	-0.04466554
27	0xbce8038a	-0.028322
28	0xbd861f81	-0.06548978
29	0xbd76bc45	-0.06023814
30	0xbbc38999	-0.0059673307
31	0x3db028fa	0.08601566
32	0x3c1ff9f3	0.009764182
33	0x3e169382	0.14704707
34	0x3d74b47a	0.05974243
35	0x3bdf2507	0.006809834
36	0xbdc97431	-0.09836615
37	0xbd440c44	-0.04786326
38	0x3d6014fc	0.054707512
39	0xbdf7adc3	-0.12093689
40	0xbd3930bf	-0.045212504
41	0x3c7754ba	0.015095884
42	0xbd854865	-0.06507949
43	0x3b9f862f	0.004868291
44	0xbca75cff	-0.020430086
45	0x3dc5635c	0.09638092
46	0xbda6514f	-0.08120977
47	0xbe40157c	-0.18758196
48	0x3e086099	0.13318099
49	0x3cd5596d	0.026043618
50	0x3d8924f6	0.06696503
51	0x3ce61bbb	0.028089395
52	0xbc97d218	-0.018532798
53	0xbdac6686	-0.08417992
54	0xbdaeafa3	-0.08529594
55	0x3d9be047	0.07611137
56	0x3d387d56	0.045041405
57	0xbd0ffdc3	-0.035154115
58	0x3c5b889e	0.013399271
59	0x3bfebe3e	0.0077741435
60	0x3df86573	0.12128725
61	0x3e349eda	0.17638722
62	0x3e239f8b	0.1597883
63	0x3d4b72cf	0.049670037
64	0x3d472792	0.04862172
65	0xbc52fbde	-0.012877433
66	0x3dde92af	0.108678214
67	0x3d00bb50	0.031428635
68	0x3cfd3e8e	0.030913617
69	0xbc1244ce	-0.008927537
70	0xbd9ef8d0	-0.07762301
71	0xbd9d0d6d	-0.076685764
72	0x3d97793c	0.073961705
73	0x3ddeb5d0	0.10874522
74	0x3d2b9e7c	0.04189919
75	0xbdc73832	-0.09727515
76	0xbc0ace27	-0.008472002
77	0xbd83af24	-0.0642989
78	0x3e086e33	0.13323288
79	0xbdcc2140	-0.099672794
80	0x3d3534b0	0.0442397
81	0x3d76be9c	0.060240373
82	0xbd1cb559	-0.038258884
83	0xbdffa5ce	-0.124827966
84	0xbc29ac26	-0.010355985
85	0xbc049a68	-0.008093454
86	0x3e2f0134	0.17090303
87	0x3b9a377c	0.0047063213
88	0xbd0e147f	-0.034687515
89	0xbe14c9ba	-0.14530078
90	0xbe1776d1	-0.14791419
91	0x3e351374	0.17683202
92	0xbc5fc51c	-0.013657834
93	0x3d452fe7	0.048141386
94	0xbc5515e1	-0.013005705
95	0xbe18887c	-0.14895815
96	0xbce0dae9	-0.027448134
97	0x3c161f44	0.009162728
98	0xbd9a159a	-0.075236514
99	0xbd7a2675	-0.06107183
100	0xbd75ad39	-0.05997965
101	0x3b4afc32	0.0030973074
102	0xbe59f939	-0.21286477
103	0x3d470c2d	0.048595596
104	0x3e00f3a3	0.1259294
105	0x3daf60f3	0.085634135
106	0xbd539c82	-0.05166293
107	0x3d8748a2	0.066056505
108	0xbd974b04	-0.07387355
109	0x3ceaacbf	0.028646825
110	0xbda28f68	-0.07937509
111	0x3e109e60	0.14122915
112	0xbd4f0ff5	-0.050552327
113	0x3e122baf	0.14274476
114	0xbd8a206f	-0.067444675
115	0xbc96f9bd	-0.018429631
116	0x3a9e03c0	0.0012055561
117	0xbc8723b3	-0.016496515
118	0xbd022637	-0.031774726
119	0xbc473800	-0.0121593475
120	0x3d61ecdd	0.05515753
121	0xbd90877b	-0.07057091
122	0xbd862821	-0.06550623
123	0x3dafeb8d	0.085898496
124	0xbd21c196	-0.03949126
125	0xbe086e5d	-0.1332335
126	0xbdd6969b	-0.104779445
127	0x3db1eea8	0.08688098
128	0xbe2a5505	-0.16633995
129	0x3e37a9eb	0.17935912
130	0x3e8eb3a2	0.27871424
131	0xbe0349eb	-0.12821166
132	0x3d99d852	0.07511963
133	0xbe325b58	-0.17417657
134	0xbd1ec4c3	-0.038761865
135	0xbe2ae112	-0.1668742
136	0xbc27ef16	-0.010249874
137	0x3e1efffa	0.15527335
138	0x3e5ad0df	0.2136874
139	0xbe4a3c77	-0.19749628
140	0xbd47b48f	-0.04875618
141	0xbd977f6b	-0.0739735
142	0xbe71e64f	-0.23623012
143	0x3c8d9c09	0.017286317
144	0x3db49472	0.08817376
145	0xbd0297f4	-0.031883195
146	0x3d3b3350	0.045703232
147	0x3f049dd0	0.518033
148	0xbde1b2a1	-0.11020399
149	0xbdf8f828	-0.12156707
150	0xbe0cbe04	-0.1374436
151	0x3e35073e	0.17678544
152	0xbe18c2bd	-0.14918037
153	0xbe650a23	-0.22367148
154	0x3e49ea21	0.1971822
155	0x3ec43918	0.3832481
156	0x3dc94bfb	0.09828945
157	0x3e683f3a	0.22680369
158	0x3d13338e	0.03593784
159	0x3e9abc4b	0.3022178
160	0x3d9e1e7d	0.07720659
161	0x3e52af4e	0.20574686
162	0x3c826a41	0.015919806
163	0x3e07c53c	0.13258833
164	0x3e44f524	0.19234139
165	0xbd4492ee	-0.047991686
166	0xbe9f78ff	-0.31147
167	0xbdb60b92	-0.088889256
168	0xbdc8cce6	-0.09804706
169	0xbe7fe311	-0.24988963
170	0x3ea3f4fc	0.32022846
171	0x3c8804d8	0.016603872
172	0xbe446342	-0.19178489
173	0xbd176cdf	-0.036969062
174	0xbd9fd319	-0.078039356
175	0xbea2b84c	-0.31781232
176	0xbd476c92	-0.048687525
177	0xbe3bf755	-0.18356068
178	0x3e86b838	0.26312423
179	0xbc7bb0a2	-0.015361937
180	0xbdfa7a89	-0.12230403
181	0xbce3c487	-0.027803672
182	0xbe03aa7c	-0.12858003
183	0xbec7a7aa	-0.38995105
184	0x3dc9da8a	0.09856136
185	0x3e23b54c	0.15987128
186	0xbd982c36	-0.074303076
187	0x3e6ad5a6	0.22933063
188	0x3da556b0	0.08073175
189	0x3e3c6234	0.18396837
190	0x3df9e4dd	0.12201855
191	0xbb85752d	-0.0040728063
192	0xbe42e408	-0.190323
193	0xbdec00db	-0.11523601
194	0x3e2ab42c	0.16670293
195	0x3e2d8bf6	0.16947922
196	0x3e083d4d	0.13304634
197	0x3dccf757	0.10008114
198	0x3ad44911	0.0016196092
199	0x3c623dc7	0.013808674
200	0xbd9a4963	-0.07533529
201	0x3e43efc8	0.19134438
202	0x3cdb6c3b	0.026785007
203	0xbd4eabd7	-0.050456848
204	0xbde89bec	-0.11357865
205	0xbcfc001f	-0.030761776
206	0x3cca6622	0.024706904
207	0x3d74288b	0.059608977
208	0x3d004168	0.031312376
209	0x3dafcab1	0.08583582
210	0xbd4c9061	-0.049942378
211	0xbd7c2111	-0.061554972
212	0xbdb3a1e4	-0.087711126
213	0xbd7b471c	-0.061347112
214	0x3e4c2c0c	0.19938678
215	0xbce4a11a	-0.02790885
216	0x3c7fb06b	0.015606026
217	0x3cc38aac	0.023869835
218	0xbe215bf8	-0.1575774
219	0x3e0b08b6	0.13577542
220	0xbd91a74c	-0.071119875
221	0x3e1e47c6	0.15457067
222	0x3c6f5e0d	0.014609826
223	0x3dc86c97	0.09786337
224	0xbd7962af	-0.060885128
225	0xbe024999	-0.12723388
226	0xbde240b8	-0.110475
227	0xbde3104f	-0.11087095
228	0xbd9887b4	-0.07447758
229	0x3e0288b6	0.12747464
230	0xbde28e81	-0.11062337
231	0x3e83cde2	0.25743014
232	0x3d446a68	0.04795304
233	0xbda08546	-0.0783792
234	0x3c0e477e	0.008684037
235	0x3d9b67b0	0.07588136
236	0xbcada998	-0.021199033
237	0xbdbec554	-0.09314981
238	0xbd97d626	-0.074138924
239	0x3e14171b	0.14461939
240	0x3cd16be2	0.025564138
241	0x3d219366	0.03944721
242	0xbd992693	-0.074780606
243	0xbdacbbef	-0.08434283
244	0x3e021d9e	0.1270661
245	0x3db396ed	0.08769021
246	0xbd996607	-0.07490163
247	0xbdb34204	-0.08752826
248	0xbdd75b10	-0.10515416
249	0xbd7a49d1	-0.061105553
250	0xbcca3541	-0.024683597
251	0xbd8e6045	-0.06951956
252	0xbdc61382	-0.096716896
253	0xbe4adf23	-0.19811682
254	0xbe1e5396	-0.15461573
255	0xbdc0ab97	-0.09407728

net.4.bias f4 [64]
0	0xbdd587d3	-0.10426297
1	0x3d0daad2	0.034586735
2	0x3e45d9c6	0.19321355
3	0xbd5fc126	-0.05462756
4	0xbcc8bde4	-0.02450461
5	0xbbbccc45	-0.0057616555
6	0xbdaa516d	-0.08316312
7	0xbdcfa881	-0.101395614
8	0x3dcd77ca	0.100326136
9	0x3cb22249	0.021744864
10	0xbd95e6e9	-0.07319433
11	0x3cb6e25d	0.022324735
12	0xbd55e451	-0.052219693
13	0xbb67be58	-0.0035361256
14	0x3c389cda	0.011267865
15	0x3b767046	0.0037603541
16	0xbdc736bc	-0.09727237
17	0x3da962bc	0.08270785
18	0xbde0a03e	-0.10968064
19	0xbce7f781	-0.028316261
20	0x3d21bdd1	0.039487664
21	0x3cba59ea	0.022747952
22	0x3dabd880	0.083909035
23	0x3d95d3e1	0.07315803
24	0xbcf9d57d	-0.030497307
25	0x3e0b0af9	0.13578404
26	0xbdc7d997	-0.09758299
27	0x3cb8d443	0.022562152
28	0xbc091336	-0.008366397
29	0xbe277c51	-0.16356017
30	0xbd10d7b7	-0.03536197
31	0x3d81cf83	0.06338408
32	0xbe271df1	-0.16320015
33	0x3db4f1e8	0.088352025
34	0xbddb47f4	-0.10707083
35	0x3d13dc87	0.036098983
36	0xbdea6407	-0.1144486
37	0x3dd40684	0.10352805
38	0x3d856663	0.06513669
39	0xbd90bb81	-0.070670135
40	0xbdbef8e0	-0.09324813
41	0x3e16ae4e	0.1471493
42	0xbd5df3cb	-0.054187577
43	0xbdec959f	-0.115519755
44	0x3c5a3499	0.013318204
45	0x3da2bcea	0.07946189
46	0x3db86d4f	0.09005224
47	0xbe0e1087	-0.13873492
48	0xbaf42fd0	-0.0018629972
49	0x3d1137d5	0.035453636
50	0x3dc11fd8	0.09429902
51	0x3ca39337	0.019967658
52	0xbd36967d	-0.04457711
53	0xbd367eb7	-0.04455444
54	0xbd5f52cc	-0.05452232
55	0xbd3df4ea	-0.046376146
56	0x3e03f576	0.12886605
57	0x3d9cfa90	0.076649785
58	0x3d629199	0.055314634
59	0xbd10c756	-0.03534635
60	0xbd44eef8	-0.04807946
61	0xbdba0830	-0.09083593
62	0x3d297a6e	0.041376524
63	0xbd0d5887	-0.034508254

net.6.weight f4 [1, 64]
0	0x3d4322ae	0.047640495
1	0xbd1e161b	-0.0385953
2	0x3e4fd1da	0.20294896
3	0xbe266f58	-0.16253412
4	0xbe45def5	-0.19323333
5	0x3e3a8eb8	0.18218505
6	0xbe04336a	-0.12910238
7	0xbe078761	-0.13235237
8	0x3e4e978c	0.20174998
9	0xbdd4939b	-0.10379716
10	0xbe3428e6	-0.17593727
11	0x3dec9023	0.115509294
12	0xbe1f0d36	-0.15532383
13	0xbda8d855	-0.08244387
14	0x3e03aee0	0.12859678
15	0xbd988df3	-0.0744895
16	0x3e523513	0.20528059
17	0xbdaf90e7	-0.0857256
18	0xbd79d7e1	-0.060996894
19	0x3e05be44	0.13060862
20	0xbd970059	-0.07373113
21	0xbde4ba4c	-0.11168346
22	0x3e5721ba	0.2100896
23	0x3dd63b1d	0.10460494
24	0xbe1dd0f1	-0.15411736
25	0x3d028e43	0.031873953
26	0xbe7b6ab8	-0.24552429
27	0xbea228ce	-0.31671757
28	0xbe426dcc	-0.18987197
29	0xbe563d3d	-0.20921798
30	0x3e653129	0.22382034
31	0x3e1d3016	0.15350375
32	0xbe36370b	-0.17794435
33	0x3dad7787	0.08470064
34	0xbe17b5fb	-0.14815514
35	0xbe5e6db1	-0.21721531
36	0xbeb7577a	-0.35808927
37	0xbd24e228	-0.040254742
38	0x3e19dd51	0.15025832
39	0x3e5245ce	0.20534441
40	0x3df20c75	0.11818782
41	0x3ddd9e4f	0.108212106
42	0xbdd4b8be	-0.10386799
43	0xbdf5c998	-0.120013416
44	0x3d043272	0.03227467
45	0x3daf1d53	0.08550515
46	0x3e226ab8	0.15861022
47	0xbdca5217	-0.09878939
48	0x3e6786b2	0.22609976
49	0xbca7b441	-0.020471694
50	0x3da0de69	0.07854921
51	0x3aa8abd5	0.0012868593
52	0xbd7b02da	-0.061282016
53	0xbc0627df	-0.008188217
54	0x3e3cb52d	0.18428488
55	0xbe372756	-0.17886099
56	0x3db2ad97	0.08724516
57	0x3e82f491	0.25577214
58	0xbdb7c177	-0.08972447
59	0xbe3dad78	-0.18523204
60	0xbe2741e2	-0.16333726
61	0xbde6dc26	-0.11272459
62	0xbe034509	-0.12819304
63	0x3d848cd9	0.06472177
